saved_models/barlow_encoder-ElectricDevices.ckpt (torch, 896934 bytes, 60 tensors)

encoder.0.block.0.weight f4 [64, 2, 3, 4]
0	0x3e994c70	0.2994113
1	0xbd393aa2	-0.045221932
2	0xbd5e2cdb	-0.054241996
3	0xbd89ecef	-0.067346446
4	0xbdd5209b	-0.104066096
5	0x3e844c25	0.25839344
6	0xbdde9b10	-0.108694196
7	0xbe273260	-0.1632781
8	0xbd6b983b	-0.057518225
9	0x3e303c25	0.17210443
10	0xbe726c37	-0.23674093
11	0x3b8368a3	0.0040102764
12	0xbe173b99	-0.14768828
13	0x3e9fa97d	0.31183997
14	0xbe84c608	-0.25932336
15	0x3e998395	0.29983202
16	0x3e1a3927	0.15060864
17	0xbeace050	-0.33764887
18	0xbec4448d	-0.3833355
19	0xbe4de458	-0.20106637
20	0xbda60762	-0.08106877
21	0xbe7d30eb	-0.24725692
22	0xbe54b079	-0.20770444
23	0xbdd87398	-0.10568923
24	0x3d895ddd	0.06707356
25	0x3d84aa85	0.064778365
26	0x3d3905ec	0.045171663
27	0xbcabb4a2	-0.020960156
28	0x3d926124	0.07147434
29	0xbebe7247	-0.37196562
30	0x3e634a94	0.22196418
31	0xbe3ba308	-0.1832391
32	0xbe3646ca	-0.17800441
33	0x3daefb8f	0.08544075
34	0x3ea4790a	0.32123595
35	0x3dd28ecd	0.10281143
36	0xbe40ba06	-0.18820962
37	0x3d6e1045	0.058120985
38	0xbdafa2c0	-0.08575964
39	0x3eda6e58	0.4266231
40	0x3d11c1b6	0.035585128
41	0xbe6e0999	-0.23245849
42	0xbe22d0e7	-0.15900002
43	0xbec61591	-0.3868833
44	0x3e2d814d	0.16943856
45	0xbe59586f	-0.21225141
46	0xbda3821b	-0.079838
47	0x3e4053db	0.18781988
48	0x3d32bd34	0.04363747
49	0xbc3d3931	-0.01154928
50	0x3e74efc8	0.23919594
51	0xbe481e01	-0.19542696
52	0x3e85cc31	0.26132348
53	0x3daba48d	0.08380995
54	0xbe59d41b	-0.21272318
55	0x3c2bb691	0.010480539
56	0xbdc67990	-0.09691155
57	0x3e82bada	0.2553318
58	0x3d710558	0.058842987
59	0xbe4fe092	-0.2030051
60	0xbe7bf3d8	-0.24604738
61	0xbd8b5460	-0.06803203
62	0x3e605659	0.21907939
63	0x3e9cc93f	0.3062229
64	0x3deca6f1	0.11555279
65	0xbdc03d43	-0.09386685
66	0x3e93ddd6	0.28880185
67	0xbe6842d9	-0.2268175
68	0x3e2f9433	0.17146377
69	0x3e8d35e4	0.27580178
70	0xbe504f6e	-0.203428
71	0xbed5a917	-0.41730568
72	0x3e31a069	0.17346348
73	0xbe7532c6	-0.2394515
74	0x3ccf9776	0.025340777
75	0xbcd880e6	-0.026428651
76	0x3d01dfb5	0.031707484
77	0xbd1d2573	-0.038365792
78	0xbeb743d0	-0.35793924
79	0x3d3c7868	0.046013266
80	0x3d72523d	0.05916046
81	0x3dfa1d64	0.12212637
82	0x3e51694a	0.20450321
83	0xbdd6b1b5	-0.10483114
84	0xbea61358	-0.32436633
85	0xbed9af88	-0.42516732
86	0xbe215176	-0.15753731
87	0xbda8f1a8	-0.08249217
88	0xbe1f5d24	-0.15562874
89	0xbeaecdbd	-0.3414134
90	0xbe8b425a	-0.2719906
91	0x3e4ceafa	0.20011511
92	0x3e83986d	0.2570223
93	0x3e72d7cc	0.23715132
94	0x3e596554	0.2123006
95	0xbdf09eea	-0.117490605
96	0xbe859bfc	-0.2609557
97	0xbe9f9a7b	-0.31172547
98	0x3e4cb611	0.19991328
99	0x3ebb3904	0.36566937
100	0xbca19645	-0.019724974
101	0xbd04d1a4	-0.03242649
102	0xbd9a22b3	-0.075261496
103	0xbe7231cb	-0.23651807
104	0xbc98e9d8	-0.018666193
105	0xbe52abe2	-0.2057338
106	0x3e859639	0.26091173
107	0xbe114d7d	-0.14189716
108	0xbd1b6d17	-0.037945833
109	0x3dbbdc67	0.09172898
110	0xbcfb0520	-0.030642092
111	0xbe821ef6	-0.25414246
112	0x3e5a378d	0.21310253
113	0x3cb969ca	0.022633452
114	0x3d97e9dd	0.07417653
115	0x3dc7f828	0.09764129
116	0x3ddd674b	0.10810717
117	0xbc4f1558	-0.012639366
118	0xbd5ab655	-0.05339654
119	0x3dde5acd	0.108571626
120	0xbe5c19fe	-0.2149429
121	0x3e5e6527	0.21718274
122	0x3e36e039	0.17858972
123	0xbdaef146	-0.08542113
124	0x3db0d7af	0.086348884
125	0x3e79f9af	0.24411653
126	0x3e0fc2ea	0.14039198
127	0xbe588abb	-0.21146671
128	0x3e80c0b0	0.2514701
129	0xbe52abeb	-0.20573394
130	0xbe979520	-0.2960596
131	0xbe745872	-0.23861864
132	0xbeaecc25	-0.34140125
133	0xbecca286	-0.39967746
134	0x3e1a930c	0.15095156
135	0x3d418899	0.04724941
136	0xbe8074e0	-0.2508917
137	0xbda2b62f	-0.07944905
138	0xbe210593	-0.15724783
139	0xbe28f4d3	-0.16499643
140	0xbe317d81	-0.17333032
141	0xbd71092f	-0.05884665
142	0xbe61421f	-0.2199788
143	0x3eb43619	0.35197523
144	0xbd5a9a4f	-0.053369816
145	0xbd903faf	-0.07043397
146	0xbe81be4f	-0.25340506
147	0x3b5cbc61	0.0033681619
148	0xbe0c788f	-0.13717864
149	0x3cd1c780	0.025607824
150	0x3ebe54d3	0.3717409
151	0x3e0432cb	0.12910001
152	0x3e03ba0f	0.12863944
153	0xbe536b20	-0.20646334
154	0xbe9c0241	-0.3047047
155	0xbcff86b4	-0.031192161
156	0xbecdc1a7	-0.40186808
157	0xbea7ae90	-0.32750368
158	0xbdaae3e0	-0.08344245
159	0x3e092a68	0.13395083
160	0x3dfe9a5e	0.12431787
161	0x3ee75365	0.45180812
162	0x3d9d5be4	0.07683542
163	0x3d003836	0.031303607
164	0x3ddabf65	0.10681037
165	0x3e5393a0	0.20661783
166	0xbd5394a7	-0.051655438
167	0xbe4ec83c	-0.20193571
168	0xbe0944ca	-0.13405147
169	0x3e1c9a0c	0.15293139
170	0xbd79b09c	-0.060959443
171	0xbe42ef37	-0.19036566
172	0x3dc9a361	0.09845615
173	0x3cd75d3c	0.026289575
174	0xbe4de587	-0.20107089
175	0xbe3919e4	-0.18076283
176	0x3d60185e	0.05471074
177	0xbe9a458e	-0.3013119
178	0x3e2f50aa	0.17120615
179	0x3edcc636	0.43119973
180	0xbe073ad2	-0.13206032
181	0x3d7617bb	0.060081225
182	0x3e55a7e7	0.20864831
183	0x3dc535ef	0.09629428
184	0x3d3b98c1	0.045799974
185	0x3eb4e6d0	0.35332346
186	0xbf0acd06	-0.5421909
187	0x3eac97e3	0.3370963
188	0xbbcaab71	-0.006184988
189	0x3eb3287c	0.34991825
190	0x3e924700	0.28569794
191	0x3d0db1e6	0.034593485
192	0x3e0baed1	0.13640906
193	0x3cc3e695	0.023913661
194	0xbd998aa2	-0.07497145
195	0x3cb51f50	0.022109658
196	0xbdad7b1b	-0.08470746
197	0xbe850b64	-0.25985253
198	0x3d16f21f	0.036852
199	0x3e5f1cd2	0.21788338
200	0xbdcaae72	-0.09896554
201	0xbe8082c5	-0.2509977
202	0x3ea7db8b	0.32784685
203	0xbded6409	-0.11591346
204	0x3e94372a	0.28948337
205	0x3f01923d	0.50613767
206	0x3e984ac4	0.29744542
207	0x3e8aede2	0.27134615
208	0xbd12c6ee	-0.035834245
209	0x3ec0063a	0.3750475
210	0xbea23a33	-0.31685027
211	0x3e079ff2	0.13244608
212	0x3e9cc82a	0.30621463
213	0xbe220471	-0.15822007
214	0x3e7c5b7a	0.2464427
215	0xbe5e86d2	-0.21731117
216	0x3e923e47	0.2856314
217	0xbc5644d5	-0.013077934
218	0xbec0ed3c	-0.37680995
219	0x3dc3909e	0.09549068
220	0xbe9644ab	-0.29349265
221	0xbdb0e51e	-0.08637451
222	0x3de7aeec	0.113126606
223	0xbde112a1	-0.10989881
224	0xbc95e7f2	-0.018299077
225	0xbcbb0e5a	-0.022833992
226	0x3d8e42fa	0.069463685
227	0xbe08cf3a	-0.133603
228	0x3e625cf3	0.2210577
229	0xbe90660a	-0.2820285
230	0xbef85690	-0.48503542
231	0xbe64cb60	-0.22343206
232	0xbd848406	-0.06470494
233	0xbd866efc	-0.06564137
234	0xbd752d00	-0.05985737
235	0x3e04faa8	0.12986243
236	0x3d203e9b	0.039122205
237	0x3d9376b3	0.072003745
238	0x3c6d03f9	0.014466279
239	0x3ce5569d	0.027995402
240	0xbe3805c5	-0.17970951
241	0x3e82c23c	0.25538814
242	0x3d010ad7	0.03150448
243	0x3e4e4565	0.2014366
244	0xbe3b16b0	-0.18270373
245	0x3d4ed0da	0.050492145
246	0xbe67a466	-0.22621307
247	0x3e8c01df	0.27345178
248	0x3dff1cd0	0.124566674
249	0x3d82e265	0.063908376
250	0xbeb1237a	-0.3459738
251	0x3e47a8ba	0.19497958
252	0x3d62e85c	0.055397376
253	0x3e6c8922	0.23099187
254	0xbe401315	-0.18757279
255	0x3e2e1cc9	0.17003168

encoder.0.block.0.bias f4 [64]
0	0x3be65ddb	0.0070302314
1	0xbd916374	-0.07099047
2	0x3e23d3c5	0.15998752
3	0x3dbef81e	0.09324668
4	0xbe3a0238	-0.18164909
5	0xbcf4df50	-0.02989164
6	0x3e024fcf	0.12725757
7	0xbd18e14f	-0.037324246
8	0xbded0537	-0.1157326
9	0x3e010491	0.12599398
10	0x3dd04e14	0.10171142
11	0xbdc761f3	-0.09735479
12	0xbd9e4043	-0.07727101
13	0x3dbf9763	0.093550466
14	0xbd85d66d	-0.06535039
15	0xbd70ca8e	-0.05878692
16	0xbe3efabe	-0.18650338
17	0x3db8f0af	0.09030282
18	0x3e1ae9f0	0.15128303
19	0xbd5164e5	-0.05112161
20	0x3d29c59f	0.04144823
21	0xbd30d2fc	-0.04316996
22	0x3e04a010	0.12951684
23	0xbdc75674	-0.097332865
24	0xbe134320	-0.14381075
25	0x3e35880d	0.1772768
26	0xbd619b4b	-0.05507974
27	0x3e1f48c1	0.15555097
28	0xbe29fbeb	-0.16600005
29	0x3cea964b	0.028636118
30	0xbd2b866d	-0.041876245
31	0xbd179955	-0.037011463
32	0xbddca1e7	-0.10773068
33	0x3e2934b6	0.16524014
34	0xbe06ba9b	-0.13157122
35	0xbe15bd76	-0.14623055
36	0x3c080500	0.008301973
37	0xbd057028	-0.032577664
38	0x3cbde600	0.023180962
39	0xbde54c90	-0.11196244
40	0x3e0b2e44	0.13591868
41	0x3daa1842	0.08305408
42	0xbb1271f5	-0.0022345756
43	0x3e0f0fff	0.13970946
44	0x3e3844a2	0.17994931
45	0xbb2b5067	-0.0026140453
46	0x3c68018e	0.014160527
47	0x3dd78793	0.105239056
48	0x3b666a4c	0.0035158573
49	0x3e0c844e	0.13722345
50	0x3e424c85	0.18974502
51	0xbe1915e5	-0.14949758
52	0xbd8e2f36	-0.069425985
53	0x3db30f3d	0.08743141
54	0x3df0f7f7	0.117660455
55	0xbe17984e	-0.14804193
56	0xbdf0c844	-0.11756948
57	0xbe2ee3b4	-0.1707905
58	0x3df4fee0	0.11962676
59	0x3b3b6be5	0.0028598246
60	0xbe2089cc	-0.15677565
61	0xbe2346e3	-0.1594501
62	0x3ce5b38f	0.028039722
63	0x3dc6f1dc	0.097141

encoder.0.block.1.weight f4 [64]
0	0x3f71be80	0.94431305
1	0x3f7b3faa	0.9814402
2	0x3f50ac8c	0.81513286
3	0x3f84a9b5	1.036429
4	0x3f72c03c	0.94824576
5	0x3f522dbf	0.82101053
6	0x3f837f58	1.0273237
7	0x3f8b54eb	1.088529
8	0x3f648216	0.89260995
9	0x3f6fbe21	0.9364949
10	0x3f377d18	0.7167525
11	0x3f641a40	0.89102554
12	0x3f79f593	0.9764034
13	0x3f544149	0.8291212
14	0x3f53adac	0.8268688
15	0x3f60e432	0.878482
16	0x3f52f34d	0.824025
17	0x3f753899	0.95789486
18	0x3f4348fd	0.76283246
19	0x3f85227c	1.0401149
20	0x3f747778	0.95494795
21	0x3f61bc0f	0.8817758
22	0x3f7d5b8b	0.9896781
23	0x3f87218b	1.0557112
24	0x3f4e7d36	0.80659807
25	0x3f3ffeb9	0.7499805
26	0x3f8b02cf	1.0860232
27	0x3f798b4f	0.97478193
28	0x3f52290b	0.82093877
29	0x3f607fef	0.8769521
30	0x3f7a7b17	0.9784407
31	0x3f8a08ec	1.0783973
32	0x3f5bd605	0.8587344
33	0x3f714d99	0.9425903
34	0x3f51ae0d	0.81906205
35	0x3f6be6f4	0.9214928
36	0x3f6b8b65	0.92009574
37	0x3f8ee583	1.1163791
38	0x3f730abf	0.9493827
39	0x3f67d84c	0.9056442
40	0x3f6c2373	0.9224159
41	0x3f5d2fa9	0.8640085
42	0x3f8f67aa	1.1203511
43	0x3f6ccfa9	0.92504364
44	0x3f5b141d	0.85577565
45	0x3f412c4f	0.75458235
46	0x3f77aba0	0.96746254
47	0x3f569d9c	0.8383424
48	0x3f6e8a79	0.9318004
49	0x3f5e638c	0.86870646
50	0x3f676021	0.90381056
51	0x3f664905	0.8995517
52	0x3f7ee200	0.995636
53	0x3f863230	1.0484066
54	0x3f69e7bd	0.9136923
55	0x3f5c6d6c	0.86104465
56	0x3f845a13	1.0339988
57	0x3f4f7081	0.8103104
58	0x3f74e05a	0.95654833
59	0x3f6acfef	0.9172353
60	0x3f7fe033	0.99951476
61	0x3f58e7df	0.8472881
62	0x3f64c65e	0.89365184
63	0x3f85ee08	1.0463266

encoder.0.block.1.bias f4 [64]
0	0x3f1eb7ae	0.6199902
1	0x3e921070	0.28528166
2	0xbcf86feb	-0.030326804
3	0x3eb38633	0.35063323
4	0x3ed80aa8	0.4219563
5	0x3eac5b62	0.3366347
6	0x3f3b5626	0.7317833
7	0xbd5ec445	-0.054386396
8	0xbef4d3b0	-0.47817755
9	0x3f38fad9	0.72257763
10	0x3e220a02	0.1582413
11	0xbe3bdd3b	-0.18346111
12	0x3f074a8a	0.5284811
13	0x3f28f8e0	0.66004753
14	0x3efb91e7	0.49134752
15	0xbe13ab07	-0.1442071
16	0x3f03d3c5	0.5149501
17	0x3e822401	0.25418094
18	0x3f0914d9	0.53547436
19	0x3f10f162	0.5661832
20	0xbe922ca6	-0.2854969
21	0x3f3d1e6d	0.7387455
22	0x3e583285	0.21113022
23	0xbe4f56dd	-0.2024798
24	0x3ed5939d	0.41714182
25	0x3eac288b	0.33624682
26	0xbdf82a4c	-0.121174425
27	0x3ee5fad7	0.44917938
28	0x3ebe2eec	0.37145174
29	0xbe8da36a	-0.27663738
30	0xbe7c11c5	-0.24616154
31	0x3cdb3137	0.026756866
32	0x3e205bbe	0.15659997
33	0xbf1d0631	-0.6133757
34	0x3e13da88	0.14438832
35	0xbe493b99	-0.19651641
36	0x3edd567d	0.43230048
37	0xbd3780d4	-0.044800594
38	0x3ea4d8d7	0.32196686
39	0x3ee452a0	0.44594288
40	0x3ec005f8	0.37504554
41	0x3d4442aa	0.04791514
42	0xbe8d8983	-0.27643976
43	0x3e9ddb58	0.30831409
44	0xbd25e10b	-0.04049782
45	0x3ebb4805	0.36578384
46	0x3efce422	0.49392802
47	0xbd9df845	-0.07713369
48	0x3f33030a	0.6992651
49	0xbe9aeb93	-0.30257854
50	0xbebf8908	-0.37409234
51	0x3f1dfc9e	0.6171359
52	0xbefd6f7d	-0.4949912
53	0x3f6d6286	0.9272846
54	0x3ec55304	0.38539898
55	0xbd42090c	-0.04737191
56	0x3e611e85	0.21984299
57	0x3eb47e35	0.35252538
58	0xbe65ca78	-0.22440517
59	0x3e74ffc8	0.23925698
60	0x3e95f401	0.29287723
61	0xbe76c042	-0.24096778
62	0xbeb01ba0	-0.34396076
63	0xbd3e73c2	-0.046497114

encoder.0.block.1.running_mean f4 [64]
0	0x3a9377b6	0.0011250887
1	0xbd9b0be6	-0.07570629
2	0x3e1d1614	0.15340453
3	0x3db51e94	0.08843723
4	0xbe2af68e	-0.16695616
5	0xbcfb7aa3	-0.030698126
6	0x3e0928f8	0.13394535
7	0xbd220d6c	-0.03956358
8	0xbddb2ecc	-0.10702285
9	0x3e044ec4	0.12920672
10	0x3dd6149f	0.10453152
11	0xbde28862	-0.11061169
12	0xbdb84fc8	-0.08999592
13	0x3dcd0e62	0.10012509
14	0xbd8d8203	-0.069095634
15	0xbd85b3bf	-0.065284245
16	0xbe3e755c	-0.18599457
17	0x3da70c2b	0.08156618
18	0x3e23ceba	0.15996829
19	0xbd494688	-0.04913953
20	0x3d13021b	0.03589068
21	0xbd290758	-0.04126677
22	0x3df64438	0.120247304
23	0xbdd03e1b	-0.10168096
24	0xbe13425b	-0.14380781
25	0x3e2cd076	0.16876397
26	0xbd5b433f	-0.053530928
27	0x3e122d0d	0.14274998
28	0xbe29d65b	-0.16585676
29	0x3d0ab7c5	0.033866663
30	0xbd06a2de	-0.032870166
31	0xbce4e2cc	-0.027940176
32	0xbdca82d1	-0.098882325
33	0x3e2fe45c	0.17176956
34	0xbe03927b	-0.12848847
35	0xbe158384	-0.1460095
36	0x3bec9f40	0.0072211325
37	0xbcff0a2d	-0.031132782
38	0x3cd0acc9	0.025473015
39	0xbdd64e67	-0.10464173
40	0x3e0d26c2	0.13784316
41	0x3d9d77bc	0.07688853
42	0x3b16e278	0.002302317
43	0x3e16abaf	0.1471393
44	0x3e320abd	0.17386909
45	0x3c5c31af	0.01343958
46	0x3c905f75	0.017623642
47	0x3dcce7f5	0.1000518
48	0x3ad90d80	0.001655981
49	0x3e0e0a94	0.13871223
50	0x3e4fe2fc	0.20301431
51	0xbe0f763f	-0.14009951
52	0xbd9e8ce8	-0.077417195
53	0x3da4ac6f	0.080407016
54	0x3dfda914	0.12385765
55	0xbe17da4f	-0.14829372
56	0xbdfa33b9	-0.122168966
57	0xbe2c7873	-0.16842823
58	0x3ddadf32	0.106871024
59	0x3c12d000	0.008960724
60	0xbe22344c	-0.15840262
61	0xbe1c0cc1	-0.1523924
62	0x3c9d0934	0.019169427
63	0x3dc9af13	0.09847846

encoder.0.block.1.running_var f4 [64]
0	0x4055868a	3.3363366
1	0x40423ba6	3.0348907
2	0x404c4417	3.1916559
3	0x401a14e7	2.4075258
4	0x4059219a	3.3926759
5	0x40507a88	3.2574787
6	0x401ef99b	2.4839847
7	0x406bbdf2	3.6834683
8	0x404368c8	3.0532703
9	0x402418c4	2.5640116
10	0x405eff00	3.484314
11	0x409230bf	4.5684505
12	0x404bb09e	3.1826549
13	0x4078c89d	3.8872445
14	0x40326047	2.7871263
15	0x403a7ac2	2.9137425
16	0x401a6465	2.4123776
17	0x404a72c4	3.1632547
18	0x402b9b07	2.681337
19	0x40178186	2.3672805
20	0x403815cd	2.8763306
21	0x4048ffaa	3.1406045
22	0x40387fe5	2.882806
23	0x4040ac55	3.0105183
24	0x402c65f0	2.6937218
25	0x40256f45	2.5849164
26	0x403482bc	2.8204794
27	0x408c94d3	4.393167
28	0x404ccaa4	3.1998682
29	0x4069922f	3.6495473
30	0x4078c4ba	3.8870072
31	0x40913573	4.5377746
32	0x405b9872	3.4311795
33	0x406bb0d4	3.6826677
34	0x40493802	3.1440434
35	0x4047494a	3.1138482
36	0x40286095	2.630895
37	0x4022eae1	2.5455859
38	0x403e4c05	2.9733899
39	0x4030c263	2.7618644
40	0x404cb40e	3.1984897
41	0x4023275c	2.5492773
42	0x4059b1f2	3.401486
43	0x404f8f3c	3.2431173
44	0x4026d87e	2.6069636
45	0x4076d54c	3.8567686
46	0x403b12f0	2.9230309
47	0x4034d7b1	2.8256648
48	0x401d0285	2.4532788
49	0x40170a10	2.3599892
50	0x406d1f19	3.705023
51	0x4015b37b	2.3390796
52	0x401d1e5d	2.4549782
53	0x40521c4f	3.2829778
54	0x40688617	3.6331842
55	0x401f7a5a	2.4918427
56	0x406bcf48	3.6845264
57	0x403363a1	2.8029559
58	0x408a4098	4.320385
59	0x40416165	3.0215695
60	0x4077e07d	3.8730767
61	0x404a1a35	3.1578496
62	0x404c2dcb	3.190295
63	0x406672da	3.60076

encoder.1.block.0.weight f4 [64, 64, 3, 4]
0	0xbe6dce86	-0.23223314
1	0xbe575445	-0.2102824
2	0xbe8b1b03	-0.27169046
3	0xbe7674af	-0.24067949
4	0xbc273730	-0.010206029
5	0x3d7136ed	0.058890272
6	0x3e93232a	0.28737766
7	0xbd9edf60	-0.07757449
8	0xbd4c231b	-0.049838167
9	0xbd6ef2cd	-0.05833702
10	0xbc43ecee	-0.011958344
11	0xbdadbc8a	-0.084832266
12	0xbe50bd65	-0.20384748
13	0xbcd06ff1	-0.025444003
14	0xbe539042	-0.20660499
15	0xbe02d846	-0.12777814
16	0x3d7def63	0.061995875
17	0xbd8934d8	-0.06699532
18	0xbe86875a	-0.2627514
19	0xbbc49ebf	-0.0060003693
20	0x3eaf7678	0.34270072
21	0xbdbe97eb	-0.0930632
22	0x3bc59bca	0.0060305344
23	0x3daca0bf	0.084290974
24	0xbdaeaa2b	-0.08528551
25	0xbe9db45c	-0.30801666
26	0xbe0f45c0	-0.13991451
27	0x3e3d8f80	0.18511772
28	0x3ba6eb93	0.0050940006
29	0xbdfa0457	-0.12207859
30	0xbc2ffeaa	-0.010741869
31	0x3b177510	0.0023110546
32	0x3e7cedab	0.24700038
33	0xbe42a350	-0.19007611
34	0xbd820cd2	-0.063501015
35	0xbb88f500	-0.004179597
36	0x3d99f532	0.075174704
37	0x3e7f2680	0.2491703
38	0xbd66cc16	-0.056346975
39	0xbd0e1634	-0.034689143
40	0xbe69188f	-0.22763275
41	0xbe454a96	-0.19266734
42	0x3eb74a4a	0.35798866
43	0xbe6b5d5d	-0.22984834
44	0x3dddf969	0.10838587
45	0x3c4657a1	0.012105853
46	0x3e2a3ca7	0.166247
47	0xbce9712d	-0.02849635
48	0xbc9156ca	-0.01774158
49	0x3d0b8c9a	0.034069635
50	0x3de80d20	0.113306284
51	0xbdb783b7	-0.089606695
52	0x3dae56c1	0.08512641
53	0xbe5137cf	-0.20431446
54	0x3d7589e7	0.059945967
55	0xbdd34c79	-0.103173204
56	0xbe379b6d	-0.17930384
57	0xbe0dd83e	-0.13852021
58	0xbe0e0a11	-0.13871028
59	0xbdca8d63	-0.098902486
60	0xbda904e7	-0.08252888
61	0x3de73046	0.11288504
62	0x3ece07f6	0.4024045
63	0x3dc4c94f	0.09608709
64	0x3dbb331d	0.091406085
65	0x3d810945	0.06300596
66	0xbb9c6843	-0.004773171
67	0xbe3ee7b8	-0.18643081
68	0x3e1237cc	0.14279097
69	0x3d7b653b	0.061375838
70	0xbc5c3f5e	-0.013442842
71	0x3daffa23	0.08592632
72	0xbd8168a0	-0.06318784
73	0x3e534a80	0.20633888
74	0xbdec479d	-0.11537097
75	0xbe8a553c	-0.27018154
76	0x3d1ce9cd	0.038308907
77	0xbe864696	-0.26225728
78	0xbe06a3ab	-0.13148372
79	0xbe2ae20e	-0.16687796
80	0x3d0a4626	0.033758305
81	0x3c61d249	0.013783046
82	0x3f139a1d	0.57657033
83	0x3e286271	0.16443802
84	0x3c99aa05	0.01875783
85	0x3e1c172d	0.15243216
86	0x3aec0cac	0.0018009148
87	0xbe626bd7	-0.2211145
88	0xbe6b371e	-0.22970244
89	0x3e624e98	0.22100294
90	0x3eb875d8	0.36027408
91	0xbd83ab5e	-0.0642917
92	0x3e852476	0.2600438
93	0x3e5424aa	0.20717111
94	0xbcb943ec	-0.022615395
95	0xbd0b003e	-0.033935778
96	0xbd99843b	-0.07495924
97	0xbda39ec6	-0.07989268
98	0xbd861d29	-0.065485306
99	0x3d81ac65	0.0633171
100	0x3e334515	0.17506821
101	0x3e2df620	0.1698842
102	0xbd36323f	-0.044481512
103	0xbd197297	-0.037462797
104	0x3deae0c0	0.11468649
105	0xbe1b8096	-0.1518577
106	0xbea4285e	-0.32062048
107	0x3e8f85f9	0.280319
108	0xbdad0ef6	-0.08450119
109	0x3ecad1dc	0.39613235
110	0x3ddc1ef5	0.10748092
111	0xbd52d268	-0.05147019
112	0x3d8543aa	0.065070465
113	0xbcc2ff5b	-0.023803404
114	0xbdac58c4	-0.08415368
115	0x3ded9d40	0.11602259
116	0xbcad3148	-0.021141663
117	0xbd7576f7	-0.059927907
118	0xbd2d4042	-0.04229761
119	0x3db46082	0.0880747
120	0xbdc71f38	-0.097227514
121	0xbe7013b8	-0.23445022
122	0x3de7111d	0.11282561
123	0x3dccb78e	0.09995948
124	0xbe198f45	-0.14996059
125	0x3dc923c5	0.098212756
126	0x3e3be76a	0.18349996
127	0x3b5390bd	0.0032282316
128	0x3e0920bc	0.13391393
129	0x3d2f22b0	0.04275769
130	0xbeb9e25e	-0.36305517
131	0x3ec62414	0.386994
132	0xbe11f34d	-0.14252968
133	0xbe134266	-0.14380798
134	0xbe07abf3	-0.13249187
135	0xbe6961ed	-0.22791262
136	0x3d40ea71	0.04709858
137	0xbda73c1a	-0.0816576
138	0x3e6d1c5c	0.2315535
139	0x3db5a47c	0.088692635
140	0x3ded296c	0.11580166
141	0x3e1c9cf8	0.15294254
142	0x3e5c9bc1	0.2154379
143	0xbbd50b78	-0.0065016113
144	0xbc8d9864	-0.01728458
145	0x3e0e4042	0.138917
146	0xbe28d89f	-0.16488884
147	0xbe825a3a	-0.25459462
148	0xbdd6278e	-0.10456763
149	0x3d8c720a	0.06857689
150	0x3e586d7c	0.21135515
151	0x3d17295f	0.03690469
152	0x3e11a64e	0.14223596
153	0x3e7e19bc	0.24814504
154	0x3dd12706	0.10212521
155	0xbd846a15	-0.06465546
156	0xbda4087b	-0.0800943
157	0x3d033a0c	0.03203778
158	0xbe6f0716	-0.23342547
159	0xbded6731	-0.11591948
160	0x3bf11837	0.007357623
161	0xbe02569c	-0.12728351
162	0xbe8ee7d6	-0.27911252
163	0xbd43f35b	-0.047839504
164	0xbdc55216	-0.09634797
165	0xbcd18585	-0.025576362
166	0x3d5a0c49	0.053234372
167	0x3d8aa9fb	0.067707025
168	0xbc24a6cf	-0.010049536
169	0x3e020c21	0.1269994
170	0xbe94e2b7	-0.2907922
171	0xbd9a0eaa	-0.07522328
172	0x3e607a6d	0.21921702
173	0xbe2432c7	-0.16034995
174	0x3dd7ce8b	0.10537442
175	0xbe5defa5	-0.21673448
176	0x3d6634e6	0.05620279
177	0x3ddd5729	0.1080764
178	0x3d5ac08b	0.05340628
179	0xbdcd16d8	-0.10014123
180	0xbe2517ef	-0.16122411
181	0x3e1daff2	0.15399149
182	0xbdc6591d	-0.09684966
183	0x3d271059	0.040787075
184	0xbdef3472	-0.11679925
185	0x3e2089f1	0.1567762
186	0x3dc57373	0.09641161
187	0x3e789d21	0.2427869
188	0x3e32b82a	0.17453066
189	0xbdfdd4f5	-0.12394134
190	0xbe20d34c	-0.15705603
191	0x3e35d0d0	0.17755437
192	0xbd162cf7	-0.036663976
193	0x3dcd0588	0.100108206
194	0xbda29f05	-0.07940487
195	0x3dfde751	0.12397636
196	0xbd9e41da	-0.07727404
197	0xbe8f58e9	-0.2799752
198	0xbdd10dbb	-0.10207697
199	0x3d7a699c	0.061135873
200	0x3d8d2dff	0.06893539
201	0xbe3fdee2	-0.18737367
202	0x3d6d092a	0.057870068
203	0x3d4052b9	0.04695389
204	0x3e6a0110	0.22851968
205	0x3bfd9c11	0.007739552
206	0xbd9a554d	-0.07535801
207	0x3d19db50	0.03756267
208	0x3e806ada	0.2508152
209	0x3e02a112	0.12756756
210	0xbd677ea7	-0.05651727
211	0xbce0a074	-0.02742026
212	0xbb902c69	-0.0043998254
213	0x3e4fc129	0.20288529
214	0x3e5c5fb1	0.21520878
215	0xbd0ddfc6	-0.034637235
216	0xbe232007	-0.15930186
217	0xbd0cb1d5	-0.03434928
218	0xbdbe2229	-0.09283859
219	0x3d03ccbc	0.03217767
220	0xbcb721c4	-0.022354968
221	0xbce500f2	-0.027954552
222	0xbd906038	-0.07049602
223	0xbdd07dda	-0.10180254
224	0xbd5f0593	-0.054448675
225	0x3c195882	0.009359481
226	0x3f063b2e	0.5243405
227	0x3d6adbba	0.057338454
228	0xbe56c94a	-0.20975223
229	0x3dc7a835	0.0974888
230	0x3e2a5350	0.16633344
231	0x3be74f12	0.0070589865
232	0x3e168c57	0.14701973
233	0x3dafb23b	0.08578917
234	0xbf0bc09f	-0.5459079
235	0xbd611a87	-0.05495694
236	0xbd61f259	-0.05516276
237	0x3dca4911	0.098772176
238	0x3db6bb65	0.089224614
239	0xbc0921f1	-0.008369909
240	0xbe59cedd	-0.21270318
241	0xbe05eb07	-0.13077937
242	0xbe27b479	-0.16377439
243	0xbddcdc8a	-0.10784252
244	0x3dbc9097	0.09207266
245	0xbb825f51	-0.0039786478
246	0x3dbd4f3e	0.0924363
247	0x3e057899	0.13034286
248	0xbcfef825	-0.031124184
249	0x3df5ee74	0.12008372
250	0x3d285d14	0.04110439
251	0x3df5927d	0.11990831
252	0x3dccea7b	0.10005661
253	0x3e65c459	0.22438182
254	0xbd42ba07	-0.04754069
255	0xbe617654	-0.22017795

encoder.1.block.0.bias f4 [64]
0	0xbca69f1b	-0.02033954
1	0xbcaa19fc	-0.020764343
2	0xbcd68920	-0.026188433
3	0xbba8d864	-0.005152749
4	0x3a5074dc	0.0007951984
5	0x3d0ef757	0.03490385
6	0xbced437e	-0.028962847
7	0xbcdb2d5d	-0.02675503
8	0xbd02c8ea	-0.031929888
9	0x3c50af39	0.012737089
10	0x3cc6885d	0.024234945
11	0x3bfadb33	0.007655525
12	0x3c9ccd55	0.019140879
13	0x3c442825	0.011972462
14	0x3cd8375d	0.026393587
15	0x3ce6df97	0.028182788
16	0x3ce21e1e	0.027602252
17	0xbbfbf82e	-0.0076894974
18	0xbc48cb37	-0.012255481
19	0xb964e8cd	-0.000218305
20	0xbbeb136d	-0.0071739466
21	0xbaa64706	-0.0012685962
22	0x3cf2ad48	0.029623643
23	0xbbc8e320	-0.006130591
24	0x3be6cd30	0.007043503
25	0xbd12e7aa	-0.035865463
26	0x3c5e5a77	0.013571373
27	0xbce2d629	-0.02769001
28	0x3b668622	0.0035175164
29	0x3ccb25fa	0.024798382
30	0x3c3dc5bc	0.011582788
31	0xb85aeecb	-5.2197644e-05
32	0xbbf476e0	-0.00746046
33	0xbd1fe3fc	-0.039035782
34	0x3ca68f63	0.020332044
35	0xbce9ab9f	-0.028524218
36	0x3c8bd396	0.017068665
37	0x3bf9fd96	0.0076291068
38	0x3c285953	0.010275203
39	0xbc2c0def	-0.010501369
40	0x3cc34681	0.02383733
41	0xbcf540d4	-0.029938139
42	0xbcceebcf	-0.025258927
43	0x3d06d5e6	0.032918833
44	0xbcec39c6	-0.028836142
45	0x3c9c4016	0.019073527
46	0xbcc2a472	-0.023760054
47	0xbc9af888	-0.018917337
48	0x3c782adc	0.015146937
49	0xbbaebd43	-0.0053326203
50	0xbcf31ade	-0.029675897
51	0x3c3cfee2	0.011535378
52	0x3c1a4904	0.009416822
53	0x3bbcf0f3	0.005766028
54	0x3a9c54c6	0.001192712
55	0xbc393b4a	-0.0113056395
56	0x3c15195a	0.009100283
57	0x3c9763af	0.01848015
58	0xbc48a515	-0.01224639
59	0xbb436065	-0.0029812094
60	0xbc9bd004	-0.019020088
61	0xbca89b0f	-0.02058175
62	0x3c87ae85	0.01656271
63	0xbbbf4504	-0.0058370847

encoder.1.block.1.weight f4 [64]
0	0x3f37f52f	0.71858495
1	0x3f643100	0.8913727
2	0x3f3440f9	0.7041164
3	0x3f24776e	0.64244735
4	0x3f40939b	0.7522523
5	0x3f689a2b	0.9086024
6	0x3f41fd9f	0.7577762
7	0x3f38ed62	0.7223722
8	0x3f922f36	1.1420658
9	0x3f6eba1c	0.9325273
10	0x3f41b56e	0.75667465
11	0x3f4cee98	0.80051565
12	0x3f028874	0.5098946
13	0x3f30b38a	0.69023955
14	0x3f2385c8	0.6387601
15	0x3f711322	0.9416982
16	0x3f3b4fe7	0.73168796
17	0x3f584cf1	0.84492403
18	0x3f262c65	0.6491149
19	0x3f44a99a	0.7682129
20	0x3f45f2ce	0.77323616
21	0x3f51a2b5	0.81888896
22	0x3f4dc007	0.80371135
23	0x3f3374f4	0.7010033
24	0x3f2ef67d	0.6834486
25	0x3f4ce785	0.8004077
26	0x3f3157ea	0.6927477
27	0x3f4593f8	0.7717891
28	0x3f4c6535	0.7984193
29	0x3f5ae713	0.8550884
30	0x3f2dd41b	0.6790177
31	0x3f68b971	0.9090796
32	0x3f433ee7	0.76267856
33	0x3f53645b	0.82575005
34	0x3f3babaa	0.73308814
35	0x3f5e913a	0.8694035
36	0x3f8d1188	1.1020975
37	0x3f47e804	0.780884
38	0x3f39f665	0.72641593
39	0x3f630d19	0.8869186
40	0x3f704c61	0.93866545
41	0x3f63bcc3	0.889599
42	0x3f314642	0.6924783
43	0x3f34b4e7	0.70588535
44	0x3f8a7019	1.081546
45	0x3f4caed7	0.79954284
46	0x3f71ba42	0.9442483
47	0x3f391f29	0.7231317
48	0x3f5723ba	0.8403889
49	0x3f448d40	0.7677803
50	0x3f396c1b	0.7243058
51	0x3f4420a2	0.76612294
52	0x3f4e4847	0.80579036
53	0x3f5b54b5	0.8567613
54	0x3f3cae72	0.7370368
55	0x3f643a49	0.89151436
56	0x3f113b3c	0.5673101
57	0x3f89ccd9	1.076564
58	0x3f3cd10e	0.7375649
59	0x3f4f4bcd	0.8097504
60	0x3f436138	0.7632022
61	0x3f2f8cfa	0.6857449
62	0x3f480f99	0.781488
63	0x3f45b0e9	0.7722307

encoder.1.block.1.bias f4 [64]
0	0x3d7982f0	0.060915887
1	0x3d0741ed	0.033021856
2	0xbdf311d3	-0.11868634
3	0x3e6d2dc4	0.2316199
4	0xbdcfcfd4	-0.10147062
5	0x3d2da0fa	0.042389847
6	0x3e98fb5a	0.29879266
7	0x3e2a0409	0.16603102
8	0xbf3c8733	-0.736438
9	0x3f125337	0.57158226
10	0xbcb1897c	-0.021672003
11	0xbe25b5e8	-0.16182673
12	0x3f170135	0.58986217
13	0xbec88015	-0.3916022
14	0x3e1898f7	0.14902101
15	0xbe3018e2	-0.17196992
16	0xbe2ef1db	-0.17084448
17	0xbec50a39	-0.38484362
18	0x3e6d73df	0.23188733
19	0x3f2920dc	0.66065764
20	0xbde990b0	-0.1140455
21	0x3e4f3646	0.20235547
22	0xbf20ef66	-0.62865293
23	0xbe033cc7	-0.12816153
24	0x3f225045	0.6340373
25	0xbc8448b9	-0.016147958
26	0x3f0adac8	0.54240084
27	0x3eb5194a	0.35370857
28	0x3f11b1e1	0.56912047
29	0x3ea9fc7d	0.33200446
30	0x3e817cd3	0.25290546
31	0x3ec0e797	0.3767669
32	0x3e839315	0.25698152
33	0x3da99d12	0.08281912
34	0x3ed34b2e	0.41268295
35	0x3dcb60c3	0.09930565
36	0x3c417845	0.01180846
37	0x3ebeab82	0.37240225
38	0x3e812804	0.25225842
39	0xbd8bb846	-0.06822257
40	0x3e810455	0.25198618
41	0x3e473cf0	0.1945684
42	0x3ea7af23	0.32750806
43	0x3d7e0890	0.062019885
44	0x3f17edbd	0.59347135
45	0x3f3b0515	0.7305463
46	0x3d46c5ab	0.048528355
47	0x3ddd8141	0.10815669
48	0xbdea4d49	-0.11440522
49	0x3d82c2e8	0.06384832
50	0xbe9037d3	-0.2816759
51	0x3ec35c39	0.38156298
52	0x3cd2b242	0.025719766
53	0x3e86892d	0.26276532
54	0x3efd2bd9	0.49447516
55	0x3de3a5ef	0.11115634
56	0x3edbbeb8	0.42918944
57	0x3e8cda06	0.2751009
58	0xbcd908c4	-0.026493438
59	0x3e6ff1df	0.2343211
60	0x3e7b5f0a	0.24547973
61	0xbe58d7f7	-0.21176134
62	0xbea35c57	-0.31906387
63	0xbeb91a58	-0.3615291

encoder.1.block.1.running_mean f4 [64]
0	0x3fa113ea	1.2584202
1	0x3fa890b9	1.3169166
2	0x3d8fae1a	0.07015629
3	0xbf810bdc	-1.0081744
4	0x3fc27bd1	1.5194036
5	0xc11264f0	-9.149643
6	0xbf802d1e	-1.0013769
7	0x3f426aac	0.7594402
8	0xbd607503	-0.05479909
9	0xc08dbffb	-4.429685
10	0xbf66fcb7	-0.9022936
11	0x3fa85acf	1.3152713
12	0xc0250dec	-2.5789747
13	0x402935a6	2.6438994
14	0xc03228cd	-2.7837403
15	0xc0a829c9	-5.2551007
16	0x3f403f9b	0.75097054
17	0xbf9b0247	-1.211007
18	0x3e0a78ba	0.13522616
19	0x4019f45e	2.40554
20	0xbf1ef866	-0.62097776
21	0xc05e6ad4	-3.4752703
22	0x3f8a9a15	1.0828272
23	0x415e8777	13.908072
24	0xc080922e	-4.017844
25	0x3fabafdc	1.3413043
26	0xbff27c46	-1.8944175
27	0xc03079fc	-2.7574453
28	0x3ffb2f53	1.9623817
29	0xc0f99520	-7.7994537
30	0xc0cddea5	-6.4334283
31	0xc0d116d4	-6.5340366
32	0x3f6d488b	0.92688817
33	0x3eda996a	0.4269517
34	0x40468798	3.102026
35	0xc029b39d	-2.6515877
36	0xbfeaaa55	-1.8333231
37	0xc0a04351	-5.0082173
38	0x3ce600b5	0.028076509
39	0xbfefc730	-1.8732662
40	0x3fc6774d	1.5505158
41	0x3ff987e2	1.9494593
42	0xc0251b42	-2.5797887
43	0xbfd0e219	-1.6319
44	0x40886dd3	4.2634063
45	0xbfcf4c8e	-1.6195238
46	0xc03db3ff	-2.964111
47	0xc03935fc	-2.89392
48	0x40a60a93	5.188791
49	0xc0d74f5b	-6.728437
50	0x3f133d95	0.5751584
51	0xc045c6b2	-3.0902524
52	0xbf977612	-1.1832907
53	0xc01ae200	-2.420044
54	0xc0de3019	-6.9433713
55	0xc04fefa9	-3.2490027
56	0xc0b2fe54	-5.593546
57	0xc01cb0fb	-2.448302
58	0x3ea652c5	0.32485023
59	0xbf74c91c	-0.9561937
60	0xbea9a123	-0.3313075
61	0x3f977732	1.183325
62	0x3f7ed318	0.99540854
63	0x400b2b6e	2.1745257

encoder.1.block.1.running_var f4 [64]
0	0x41bb06ed	23.378382
1	0x41a2efb8	20.36705
2	0x41339341	11.223451
3	0x41a49ef6	20.577618
4	0x417b64c8	15.712105
5	0x419d4453	19.658361
6	0x4190c569	18.096392
7	0x41403258	12.012291
8	0x41c0285e	24.01971
9	0x41f18e8d	30.194605
10	0x4179d0c4	15.613468
11	0x4142c0a1	12.172029
12	0x413199a8	11.100014
13	0x41292d3b	10.573543
14	0x41205f50	10.02327
15	0x418d34f5	17.650858
16	0x4132f140	11.183899
17	0x412eb5c7	10.919379
18	0x4165c8a4	14.361485
19	0x41d7b00e	26.960964
20	0x41463cd4	12.389851
21	0x419d14db	19.635183
22	0x41898c4e	17.193508
23	0x42302989	44.04056
24	0x41a3cf79	20.476305
25	0x4166c62c	14.423382
26	0x4188344a	17.025532
27	0x4184e9c8	16.614151
28	0x41c91d1b	25.139212
29	0x418d0f36	17.632427
30	0x4129fe1e	10.62454
31	0x41d953be	27.16589
32	0x41988222	19.063541
33	0x4199eecb	19.241598
34	0x419ebd7e	19.842525
35	0x4190f49e	18.119442
36	0x418ad279	17.35277
37	0x41b558f7	22.66844
38	0x41adeced	21.740686
39	0x418b3e06	17.405285
40	0x41d8e6ea	27.112751
41	0x41a4ed08	20.615738
42	0x4182d576	16.354229
43	0x412630e1	10.386933
44	0x42095e1b	34.3419
45	0x41b1c9c2	22.223515
46	0x41b58bbd	22.693232
47	0x419a1362	19.259464
48	0x41ce6297	25.79814
49	0x4117fd84	9.499393
50	0x41376eec	11.464581
51	0x41826a9e	16.30206
52	0x419bfc2c	19.49813
53	0x417e6dda	15.901819
54	0x416bd370	14.7391205
55	0x419c2442	19.517704
56	0x414fdece	12.991896
57	0x41eff656	29.995281
58	0x41832f54	16.39811
59	0x414dac23	12.854526
60	0x41df688f	27.926054
61	0x411a43c2	9.641542
62	0x414ed770	12.927597
63	0x416553e1	14.332978

encoder.2.0.convs.1.weight f4 [64, 64, 3, 3]
0	0xbea879af	-0.32905337
1	0x3e3bc37b	0.18336289
2	0xbd86d7b4	-0.06584111
3	0xbcc9f99f	-0.024655161
4	0xbe92bcd0	-0.28659678
5	0x3e508fb4	0.20367318
6	0xbe4b5662	-0.19857171
7	0x3eaea42c	0.34109628
8	0xbda9677b	-0.082716905
9	0x3d3ee005	0.04660036
10	0xbe5bdd97	-0.21471249
11	0x3ddf3901	0.108995445
12	0x3d05242c	0.0325052
13	0x3f1b3981	0.6063462
14	0xbc07bec0	-0.008285224
15	0xbd19c6d1	-0.03754312
16	0xbe90391a	-0.28168565
17	0xbeb576cb	-0.35442194
18	0x3c91ca3f	0.017796634
19	0x3d8b4a8b	0.06801327
20	0x3d69a854	0.057045296
21	0x3dbef27a	0.093235925
22	0x3c8f928c	0.017525934
23	0xbe49ea65	-0.1971832
24	0x3db658d9	0.08903665
25	0xbcc31cff	-0.023817537
26	0xbe46edd2	-0.19426659
27	0xbe391bd5	-0.18077023
28	0xbe8eb66f	-0.2787356
29	0xbdb459b1	-0.0880617
30	0xbe850d63	-0.25986776
31	0x3e0aceb3	0.13555412
32	0xbddf005a	-0.10888739
33	0x3e00c86a	0.12576452
34	0xbe99e3d2	-0.30056626
35	0x3bbdd03a	0.005792645
36	0x3deba46b	0.115059696
37	0x3de3984e	0.11113034
38	0x3d419d82	0.04726935
39	0xbdd0d6b5	-0.10197202
40	0x3e89bef7	0.26903507
41	0xbe0dc955	-0.13846333
42	0x3da78f45	0.08181623
43	0xbeca5ee1	-0.39525512
44	0x3d60d117	0.054886904
45	0x3b32d45f	0.0027287228
46	0x3e05d423	0.13069205
47	0x3d477936	0.04869958
48	0x3d57056e	0.052495413
49	0xbd2b1d98	-0.04177627
50	0x3d8e0145	0.06933836
51	0x3c82ce4a	0.015967507
52	0x3e95a7af	0.29229495
53	0x3e823e39	0.25438097
54	0x3e3e49f8	0.18582904
55	0x3e239819	0.1597599
56	0xbe385d3b	-0.18004315
57	0x3db3ed77	0.08785527
58	0xbf0211b3	-0.50808257
59	0xbd404ef7	-0.046950307
60	0xbda6eb31	-0.08150328
61	0x3c8284b8	0.015932426
62	0xbe4ab0ff	-0.19794081
63	0x3d843ad5	0.06456534
64	0x3e313473	0.17305164
65	0x3b523c81	0.003207952
66	0x3df473ec	0.11936173
67	0x3e1062be	0.14100167
68	0xbe02d239	-0.12775506
69	0x3e0ad5a9	0.13558067
70	0x3da0b25f	0.078465216
71	0x3e5c6c55	0.215257
72	0x3ee46827	0.44610712
73	0xbea91373	-0.3302265
74	0xbd9d6419	-0.07685108
75	0x3d69f49c	0.057118043
76	0xbddcb41b	-0.1077654
77	0xbdac65ca	-0.08417852
78	0x3e0a387e	0.13498113
79	0xbe61c0d5	-0.22046216
80	0xbeb6d04f	-0.35705802
81	0x3d6c3819	0.057670686
82	0x3e92e081	0.28686908
83	0xbd9b0dc6	-0.075709864
84	0x3e1574aa	0.14595285
85	0x3d96b11a	0.07357998
86	0x3df63c06	0.12023167
87	0x3d2a9ac3	0.0416515
88	0x3d0b31b4	0.033982947
89	0xbd416a55	-0.047220547
90	0xbdd857af	-0.10563599
91	0x3c2b33fc	0.010449406
92	0xbde7606f	-0.1129769
93	0x3c8b669a	0.017016698
94	0xbd37aa31	-0.04484004
95	0x3d820e05	0.0635033
96	0x3e256294	0.16150886
97	0x3cbd7f6b	0.023132047
98	0xbe5cb7a5	-0.2155443
99	0x3e5bac46	0.21452436
100	0xbf030d78	-0.51192427
101	0x3e340166	0.17578658
102	0x3e47b348	0.19501984
103	0xbc9bcd96	-0.01901893
104	0x3dbfab34	0.09358826
105	0x3db59ad4	0.08867422
106	0x3e848d62	0.25889117
107	0xbd628d61	-0.05531061
108	0x3de5553a	0.11197896
109	0x3d93105f	0.07180857
110	0xbe278a23	-0.16361289
111	0x3d0626a9	0.032751713
112	0x3dfbb635	0.122906126
113	0x3e2e2e80	0.17009926
114	0xbe4172b4	-0.18891412
115	0x3e7883ec	0.24269074
116	0xbd487524	-0.04893984
117	0x3e771ca7	0.24132024
118	0x3e721495	0.23640664
119	0x3ec90c4f	0.39267203
120	0x3d962e5c	0.07333061
121	0xbe180336	-0.14844975
122	0x3c2836ba	0.010266954
123	0x3d474db0	0.048658073
124	0xbdc42d4e	-0.09578954
125	0x3c1e997a	0.009680146
126	0x3e0952a6	0.13410434
127	0xbc489db6	-0.0122446325
128	0x3c9fc88a	0.019504804
129	0x3da5c454	0.08094087
130	0x3e8dca8a	0.27693588
131	0x3e84f64a	0.25969154
132	0xbc8da6f9	-0.017291533
133	0xbd81cf33	-0.06338348
134	0x3a9f7389	0.001216517
135	0x3d49d221	0.04927266
136	0xbe1469c3	-0.1449347
137	0x3d464c72	0.048412748
138	0xbc97894f	-0.018498091
139	0xbdc2fb72	-0.09520616
140	0x3d621c1a	0.05520258
141	0xbe285309	-0.16437925
142	0x3de74f5c	0.112944335
143	0xbe04cc1c	-0.12968487
144	0x3e188f42	0.14898399
145	0xbed4db8f	-0.4157376
146	0xbe37edef	-0.17961858
147	0x3db3d314	0.08780494
148	0x3e3caf85	0.1842633
149	0xbc5080b9	-0.012726002
150	0x3ce87d77	0.028380139
151	0xbd9f63a9	-0.077826805
152	0xbe2e63bc	-0.17030233
153	0xbcddd5e3	-0.027079528
154	0xbe8c2723	-0.2737361
155	0x3db91acb	0.090383135
156	0xbdaaf1e9	-0.08346922
157	0xbde5d40e	-0.11222087
158	0x3dbee1d0	0.09320414
159	0xbdd611c7	-0.104526095
160	0xbc8c91fd	-0.017159456
161	0x3c31c3f1	0.010849939
162	0xbe2358e4	-0.15951878
163	0xbe016624	-0.1263662
164	0xbe5fb9eb	-0.21848266
165	0x3c252e89	0.010081896
166	0x3e887600	0.26652527
167	0x3daf2508	0.08551985
168	0xbd987a11	-0.07445157
169	0x3e611a5e	0.21982715
170	0x3e7c951c	0.24666256
171	0x3d48dc6c	0.049038336
172	0xbe684360	-0.22681952
173	0xbd529d49	-0.05141953
174	0x3de67402	0.112525955
175	0xbde40b0b	-0.11134919
176	0xbd8bc7b3	-0.06825199
177	0x3cbea442	0.023271684
178	0xbdf4a6fa	-0.11945911
179	0x3b433efd	0.0029792183
180	0xbce9839e	-0.028505143
181	0xbe69dfde	-0.22839305
182	0xbd7418a4	-0.05959381
183	0x3e24aa3d	0.16080566
184	0x3d903d5e	0.07042955
185	0xbd76b1bb	-0.06022809
186	0xbe258e82	-0.16167644
187	0x3ec81873	0.39081153
188	0x3d3c594e	0.045983605
189	0x3d381cb2	0.04494924
190	0xbd65f6cf	-0.05614358
191	0xbd9ea716	-0.07746713
192	0xbc5f29b5	-0.013620784
193	0x3cd15808	0.025554672
194	0xbdfdd067	-0.12393265
195	0x3d559818	0.052147
196	0xbec8526b	-0.3912538
197	0x3e00cb11	0.12577464
198	0xbe8f581e	-0.27996916
199	0xbeafc3b4	-0.34328997
200	0x3f238765	0.6387847
201	0x3db43304	0.08798793
202	0xbe18b258	-0.14911783
203	0x3e27a035	0.16369708
204	0xbe0a6bc5	-0.13517673
205	0xbcf2ee0b	-0.029654523
206	0x3de27a05	0.1105843
207	0x3ed9ee8c	0.4256481
208	0x3d8238f5	0.0635852
209	0x3e5d739b	0.21626131
210	0x3e81a948	0.25324464
211	0xbe53e4ec	-0.20692796
212	0x3ed058fd	0.40692893
213	0x3eb63c72	0.3559299
214	0xbdda2d81	-0.106532104
215	0x3e04b36b	0.12959068
216	0x3d152eb3	0.03642149
217	0x3e0f2c00	0.13981628
218	0x3cafb0a9	0.021446543
219	0xbdcc12e4	-0.099645406
220	0xbd9b83d9	-0.07593507
221	0x3bc0cde4	0.005883919
222	0xbb7ad4a9	-0.0038273728
223	0x3d635be1	0.055507544
224	0xbc61c2ab	-0.013779323
225	0x3cc255d3	0.023722565
226	0xbcb8f6f8	-0.022578701
227	0xbe25afe7	-0.16180383
228	0xbd138b51	-0.036021534
229	0xbeb1ca54	-0.34724677
230	0x3dbcdd32	0.09221877
231	0xbe674c57	-0.22587715
232	0xbe0ec189	-0.13941015
233	0x3cd049ea	0.02542587
234	0xbdc6acca	-0.09700926
235	0x3d0b0bdb	0.033946853
236	0x3dd1d3b6	0.10245459
237	0x3e7d5f6c	0.24743432
238	0x3c07324c	0.008251738
239	0x3e3f1b83	0.18662839
240	0xbc2562b0	-0.01009433
241	0x3d6ba8a2	0.057533868
242	0x3d62b113	0.055344652
243	0x3e14df6b	0.14538352
244	0xbec0eb6f	-0.37679622
245	0x3db17087	0.08664041
246	0xbc964a7c	-0.018346064
247	0x3d01f2c8	0.031725675
248	0xbceb08c9	-0.028690713
249	0x3cd88736	0.026431661
250	0xbeb4acca	-0.35288078
251	0xbc900f3e	-0.017585393
252	0x3dae7ea1	0.08520246
253	0xbe3f30a0	-0.18670893
254	0x3e8f648c	0.280064
255	0xbe5404ea	-0.20705

encoder.2.0.convs.1.bias f4 [64]
0	0xbca455ac	-0.020060383
1	0xbd1dffd7	-0.038574066
2	0xbcd41bb0	-0.025892109
3	0x3cf4c091	0.029876979
4	0x3cbfa386	0.023393404
5	0x3d0aeb2d	0.033915687
6	0xbd1b42dc	-0.03790556
7	0x3d1257e6	0.035728358
8	0x3cd65e64	0.026168056
9	0x3ca2fa3c	0.019894712
10	0x3cbcce66	0.023047637
11	0xbc510f13	-0.012759942
12	0xbc1b22d2	-0.009468751
13	0x3d17df78	0.03707835
14	0xbd08c223	-0.03338827
15	0x3cf8f7c1	0.030391576
16	0xbd2ba6de	-0.041907184
17	0x3cd28ff5	0.02570341
18	0x3cea6794	0.028613843
19	0xbba94f67	-0.005166936
20	0x3bc58ddb	0.0060288734
21	0x3b801ee1	0.003909931
22	0x3cf63a50	0.030057102
23	0xbceb2c7b	-0.028707733
24	0xbd265994	-0.040612772
25	0x3d288621	0.04114354
26	0x3d254bec	0.040355608
27	0xbca0073a	-0.019534696
28	0xbb1dc6e7	-0.0024074854
29	0xbc128086	-0.008941775
30	0x3cbab5d7	0.022791786
31	0xbc73520c	-0.0148511045
32	0xbd074d7a	-0.03303287
33	0xbc7b4c71	-0.015338049
34	0x3d0e4bca	0.034740247
35	0x3c59652e	0.013268752
36	0x3d11b2f7	0.035571065
37	0xbbbda08b	-0.0057869605
38	0xbb28ff03	-0.0025786764
39	0x3ce910cd	0.028450394
40	0x3cbf97c7	0.023387803
41	0x3ce324f8	0.027727589
42	0x3ca69ec6	0.020339381
43	0xbc99a3b0	-0.01875481
44	0xbbddcb64	-0.006768631
45	0xbbfbbe22	-0.0076825777
46	0xbcb5578c	-0.022136472
47	0x3d051f51	0.03250057
48	0xbd099d07	-0.03359702
49	0x3cbd681e	0.023120936
50	0x3cf20d1a	0.029547263
51	0xbcc15925	-0.023602078
52	0xbc1a96fb	-0.009435411
53	0xbcb10ac1	-0.021611573
54	0x3cee23e8	0.029069856
55	0x3cdcceae	0.026954021
56	0x3ca9659f	0.02067834
57	0x3d1ca35e	0.038241737
58	0xbc625669	-0.013814547
59	0xbd0b554a	-0.034016885
60	0xbd0086b2	-0.031378455
61	0x3ce23135	0.027611354
62	0x3d05d3ff	0.03267288
63	0xbc932d06	-0.017965805

encoder.2.0.convs.2.weight f4 [64]
0	0x3f87dbff	1.0614012
1	0x3fa9a349	1.3252956
2	0x3f7a7b75	0.9784463
3	0x3f6f2066	0.9340881
4	0x3f669aa6	0.90079725
5	0x3f8138aa	1.0095417
6	0x3f977957	1.1833905
7	0x3f842cba	1.032615
8	0x3f798181	0.9746323
9	0x3f6750c7	0.9035763
10	0x3f58fa53	0.84756964
11	0x3f75874d	0.9590958
12	0x3f82cdfd	1.0219113
13	0x3f7f0549	0.9961744
14	0x3f9297a9	1.1452533
15	0x3f810c74	1.0081925
16	0x3f83db1f	1.0301245
17	0x3f7cb4b2	0.9871322
18	0x3f9934e1	1.1969262
19	0x3f863954	1.0486245
20	0x3f763efa	0.96189845
21	0x3f5a3693	0.85239524
22	0x3f74c870	0.95618343
23	0x3f826922	1.0188334
24	0x3f88ca12	1.0686667
25	0x3f9bac6c	1.2161994
26	0x3f8ec24e	1.1153047
27	0x3f8b12f6	1.0865161
28	0x3f850bc9	1.0394222
29	0x3fa45280	1.2837677
30	0x3f85658f	1.0421618
31	0x3f891295	1.0708796
32	0x3f68a43c	0.908756
33	0x3f9bcf38	1.2172613
34	0x3f9a520e	1.2056291
35	0x3fa7cc7d	1.310928
36	0x3f8bdd3a	1.0926888
37	0x3f9f944e	1.2467134
38	0x3f96108c	1.17238
39	0x3f758a2a	0.95913947
40	0x3f8ea74b	1.1144804
41	0x3f82adfd	1.0209347
42	0x3f8056bd	1.002647
43	0x3f92fab0	1.1482754
44	0x3f8c6148	1.0967188
45	0x3f7770c9	0.9665647
46	0x3f84123f	1.0318068
47	0x3f97f866	1.187268
48	0x3fb5499b	1.4163088
49	0x3f7f9a1d	0.99844533
50	0x3f84b888	1.0368814
51	0x3f875a48	1.0574427
52	0x3f8c9eb9	1.0985938
53	0x3f8b3ac5	1.087731
54	0x3f981d13	1.1883873
55	0x3fa5649d	1.292133
56	0x3f87bf4b	1.0605253
57	0x3f701112	0.9377605
58	0x3f88e8d2	1.0696051
59	0x3f778f9a	0.96703494
60	0x3f9ad7d2	1.2097113
61	0x3f9c9556	1.2233074
62	0x3f91a5af	1.1378688
63	0x3f90889d	1.1291691

encoder.2.0.convs.2.bias f4 [64]
0	0xbebbd8e5	-0.36688915
1	0xbebfdf35	-0.3747498
2	0xbf337e27	-0.7011437
3	0xbd2dd958	-0.042443603
4	0xbd679601	-0.05653954
5	0x3d83ec34	0.064415365
6	0xbe0f2377	-0.13978373
7	0xbed26268	-0.41090703
8	0xbe598db8	-0.21245468
9	0xbe2a5e5e	-0.1663756
10	0xbf03dee2	-0.5151197
11	0xbe92a196	-0.28638905
12	0x3c1ca125	0.009559904
13	0xbe8a0c76	-0.26962632
14	0xbcd99648	-0.026560917
15	0xbee52295	-0.44752946
16	0x3f177d62	0.59175694
17	0xbe322f08	-0.17400753
18	0xbe98d535	-0.29850164
19	0x3e8568f4	0.26056635
20	0xbea08a99	-0.31355742
21	0xbe99d748	-0.3004706
22	0x3f001fd0	0.5004854
23	0x3d07e654	0.033178642
24	0xbe40d58a	-0.18831459
25	0xbe64a3c1	-0.22328092
26	0xbefce4f8	-0.4939344
27	0x3e8b3b0c	0.27193487
28	0xbef85bb0	-0.48507452
29	0xbebd6af9	-0.36995676
30	0x3dfeaaa1	0.12434889
31	0xb90bdbca	-0.00013337951
32	0xbe95cd58	-0.29258227
33	0xbea8d334	-0.32973635
34	0xbd84e646	-0.06489234
35	0x3ea402e4	0.32033455
36	0xbe6354eb	-0.22200362
37	0xbf1f3b31	-0.62199694
38	0xbeebcb9e	-0.46053785
39	0xbf217559	-0.63069683
40	0xbe2cffca	-0.16894451
41	0xbd572dc5	-0.052533884
42	0xbd91a752	-0.07111992
43	0x3dfba21e	0.12286781
44	0xbeae276c	-0.34014452
45	0xbda6339f	-0.08115315
46	0x3e87f7d7	0.26556274
47	0x3da1b380	0.07895565
48	0x3e0eb17e	0.13934895
49	0xbf062ccd	-0.5241211
50	0xbf137418	-0.5759902
51	0x3eca18de	0.39472097
52	0xbd8fbb0e	-0.070181
53	0xbebc5c41	-0.36789134
54	0x3db54e0f	0.08852779
55	0x3ecde4c9	0.40213612
56	0xbf4b287f	-0.7935867
57	0xbf13eab5	-0.5778001
58	0x3e21e4b6	0.15809903
59	0xbdbd2afb	-0.092367135
60	0xbf5ba29d	-0.85795003
61	0xbc350cad	-0.011050385
62	0x3efcda31	0.49385217
63	0xbe79e2f5	-0.24402983

encoder.2.0.convs.2.running_mean f4 [64]
0	0x3ef25722	0.47332102
1	0xbfe1654e	-1.7609041
2	0xc05a85da	-3.4144197
3	0x40155be4	2.3337336
4	0xbfbce083	-1.4756016
5	0xbf77a088	-0.96729326
6	0xc0a74474	-5.227106
7	0xc04be02b	-3.1855571
8	0xc036c984	-2.8560495
9	0x3fefebef	1.8743876
10	0x3eaa5bd5	0.33273187
11	0x401abc79	2.4177535
12	0x3e5ec19f	0.21753548
13	0x40103db8	2.253767
14	0xc023a685	-2.5570385
15	0x406e9b39	3.728224
16	0xbf9d3182	-1.2280734
17	0xc0733c6f	-3.8005636
18	0xc0580f7f	-3.3759458
19	0xc00b7c85	-2.179475
20	0xc02ea367	-2.7287233
21	0xbedd3358	-0.43203235
22	0xc0445bc6	-3.0681014
23	0xbfc7fe5c	-1.5624499
24	0x406caea7	3.69816
25	0xc084f757	-4.155193
26	0x3f763441	0.96173483
27	0xc0157f9a	-2.3359132
28	0x3f90bdec	1.130796
29	0xc05604da	-3.344046
30	0xc0053ac1	-2.081711
31	0xc06bd415	-3.6848195
32	0x3f80a6db	1.005092
33	0xbeff046e	-0.49808067
34	0x3e198c65	0.14994963
35	0xc02ace4c	-2.6688414
36	0xbf066f82	-0.525139
37	0xbf1b3190	-0.606225
38	0xbf89a5a4	-1.0753675
39	0xc0157cbb	-2.335738
40	0xbf91c5e4	-1.1388516
41	0x3f7c72d3	0.9861271
42	0x40902d81	4.5055547
43	0xc033338c	-2.8000212
44	0xbf1931c8	-0.59841585
45	0x3faec205	1.365296
46	0x3ee22327	0.44167444
47	0xbe812a56	-0.25227612
48	0x3ea514b4	0.32242358
49	0xc03a1c3f	-2.907974
50	0xbf38cae9	-0.72184616
51	0xbe0af12a	-0.1356856
52	0xbf3a36c2	-0.72739804
53	0xbfd22eea	-1.6420567
54	0xc00a0110	-2.1563148
55	0x402a262c	2.6585798
56	0x401c69c4	2.4439554
57	0x4054d9bd	3.3257897
58	0xbfd4c903	-1.6623844
59	0xbe2d5019	-0.16925086
60	0xc02e7bf6	-2.726316
61	0xc0878740	-4.23526
62	0xc002c1f4	-2.043088
63	0xbfa29580	-1.2701874

encoder.2.0.convs.2.running_var f4 [64]
0	0x40b2b8d1	5.5850606
1	0x40c1fc23	6.0620284
2	0x4070cd20	3.7625198
3	0x40673a2d	3.6129258
4	0x4088df2e	4.2772436
5	0x40c61649	6.1902204
6	0x40f44a5c	7.634077
7	0x40b99268	5.799122
8	0x40e2bec2	7.085786
9	0x4091866a	4.547658
10	0x403f2e8e	2.9872165
11	0x40e623f9	7.191891
12	0x4114387d	9.263791
13	0x40c877d9	6.26463
14	0x40df8ed0	6.986183
15	0x40a17822	5.0459146
16	0x4129a14a	10.601877
17	0x409d6edd	4.919783
18	0x4114de37	9.304252
19	0x4102f7cc	8.185497
20	0x40cfe663	6.4968734
21	0x40c3d1f5	6.1193795
22	0x40c6183d	6.190459
23	0x40d44388	6.6332436
24	0x41042769	8.259622
25	0x41231b90	10.194229
26	0x408e70d8	4.451275
27	0x40fb4ef0	7.853386
28	0x40a6d16a	5.2130632
29	0x41017c7b	8.092891
30	0x40cd63b1	6.4184194
31	0x40fed63c	7.9636517
32	0x408f2fdd	4.4745927
33	0x40d75e97	6.7302966
34	0x40fc11ae	7.877158
35	0x415134bb	13.075374
36	0x409a665c	4.824995
37	0x4085f943	4.1866775
38	0x40a95f0e	5.2928534
39	0x40b28841	5.5791326
40	0x40d4fb82	6.6557016
41	0x4094543a	4.6352816
42	0x410b3f84	8.703007
43	0x40ecfe7d	7.4060655
44	0x40a92ffc	5.2871075
45	0x40b06b8c	5.5131283
46	0x40ccd359	6.4007993
47	0x4107d185	8.488652
48	0x412b9008	10.722664
49	0x40b3200f	5.5976634
50	0x409ed359	4.9632993
51	0x40da7481	6.8267217
52	0x4106fe47	8.437079
53	0x40b0a998	5.5207024
54	0x410e34dd	8.887906
55	0x415ef9a6	13.935949
56	0x40988bdf	4.767074
57	0x407f2621	3.9867022
58	0x40e97277	7.2952228
59	0x40a84155	5.257975
60	0x40e24f63	7.0721908
61	0x40ed93c1	7.4242864
62	0x41021af1	8.1315775
63	0x40ad8e76	5.4236403
