saved_models/contrastive_encoder-Crop.ckpt (torch, 696630 bytes, 54 tensors)

encoder.0.block.0.weight f4 [64, 2, 3, 4]
00000000: e157 503e bd83 ecbd 921b 5fbd 0ab5 bd3d
00000010: 07d9 a23d 7bcf 723c a52d 13bd a923 2fbe
00000020: 72b0 50bd 4a3e 2ebe 542d c43c 9ca5 2f3e
00000030: 1c90 aa3d 20ba d63d 8c3c 0e3e 53d2 db3d
00000040: f08c 5e3d 0829 dabd 366e 3cbe ce3b 053e
00000050: b42c 503e 2e88 e3bd 5e52 833d 844d 223e
00000060: ab5f b33c 9e27 f03d 8733 cebd 40d1 383d
00000070: 5fd2 81bd d9b5 b33d 0d82 e0bd 85a2 80bd
00000080: c9e2 03be 5e04 49be 45b9 c83d a201 19be
00000090: 2c70 acbd 6714 2f3e 6411 963c 278f 4c3e
000000a0: 67c5 3bbe 9761 15be ec32 0b3d 1f39 9ebc
000000b0: 9751 4cbb 3fff 313d e407 59bd 91b1 873d
000000c0: 0610 bf3b 1bc5 13bb 3de5 46be 6517 b73d
000000d0: d5fe 0fbd 009b ef3d 2ee4 413e c3a5 92bd
000000e0: f15c 393e 2052 debd d3f4 df3d c6a2 60bd
000000f0: 7a79 e93d db3c fa3d ea63 b8bb 75ac 29be
00000100: 3807 a53d 1cb6 dd3d 7a9c e8bc b3fe 953d
00000110: 9ab7 f9ba 77df 3b3e 8a21 443c 916b 39bd
00000120: be55 213d e671 2fbd 6d73 1bbe cc85 24be
00000130: 0506 ee3c 49c9 b0bc f421 a73c 8446 313b
00000140: 2ff2 b6bd bf15 14be f954 39be b7fa 14be
00000150: d0a6 43bd 3d87 c63d 247b 3a3e 2437 d6bd
00000160: 31f9 4bbe 1c16 1f3e e1f0 37be ca6d eebd
00000170: 12d4 49be 5b2f 6e3d 3f27 283e c1c2 e63d
00000180: a851 243e d108 22be cf9b 09be 2fc8 3d3e
00000190: 6d83 ddbd d440 90bd 115e b53d 7ca5 f93c
000001a0: 5ad1 4cbe 7d21 69bd d1d3 cd3d 9505 dd3b
000001b0: a7d3 443e f6ce 3ebe 0dab ebbd 780b 243e
000001c0: a633 403e 5deb a13d 97c7 bd3b a9ea cbbd
000001d0: 7ff2 3fbe d85e b6bd 3071 423e 9023 19be
000001e0: c5fb ebba 1c63 063e 5f7a 393e af32 4c3e
000001f0: 0817 d5bd 8116 b23d 199d 003d 07f2 573c
00000200: b498 b03c 2975 9d3d 6ac9 2fbe 8ca0 be3d
00000210: 7901 3bbe d1f1 623b 53d8 07bc be7d c3bd
00000220: cf46 1cbe c4ba 173e 0d05 1bbd a699 af3d
00000230: 9e12 2fbe 2fb0 a03d 3f6c 08be a80a 87bd
00000240: 564f b43d 663f 83bd 648d 8f3c 8de2 39be
00000250: 7412 07bd 3c31 283d 4fdb 333e 1f90 3abe
00000260: 0201 2b3e 99c7 0dbd 7266 76bd 162f 0fbc
00000270: fbdf ddbd 9843 7fbd c100 4a3e f137 e93d
00000280: 3acc bf3b 32ad f3bd e9ac b93d 31a0 7e3c
00000290: de5f ac3d 3c5c 9c3c 031d 883c e697 393e
000002a0: a205 263d 8b28 473e aa12 043d ceed c8bc
000002b0: 0ec7 043e 1dc5 fdbc 400a 443e 6c8c 98bb
000002c0: 7aa2 103e ca1e 09be 9df7 723d 4c71 8a3d
000002d0: c8f2 263e d015 e53d 6749 b0b9 5b8a 9c3d
000002e0: d34f 10be 0c0b 4cbe d353 47bd 8316 2b3e
000002f0: 39fc 04be ef77 e03d c27e 2e3e 7ef3 13be
00000300: 562b 0ebb 029f b3bd 6397 f1bd 9f36 1e3e
00000310: 4121 18bc 2bc3 4ebe cef7 653d 2eab aabd
00000320: 42e9 af3c 941b b33d 8b64 3cbe 25ab ee3d
00000330: 4fa1 b63c db6e 3c3e 56d8 9a3d 1bf0 6bbd
00000340: 5307 d6bd 604f 0abd 0ece 13be 0e53 51bd
00000350: 573a c43b b468 d7bc e6e9 503e db08 e43c
00000360: 66bd 9c3d 1d94 48be 9565 253e ed23 dfbd
00000370: 5b2e f03d 39ae 35bd 7ee6 3cbd 039c 2fbe
00000380: 08e5 9ebd 8a95 fe3d e206 3d3e 9d7c 023e
00000390: 866d 393e a51e a0bd de9b d4bc 95f4 a8bd
000003a0: a4e0 d1bc 7991 c63d 29b7 4e3d 35e9 ddbd
000003b0: 3a7e 31be 39d9 483e d44f e83c 97f7 2f3e
000003c0: c0dc 15be 932b 8fbd d7a9 d83b 2e09 343e
000003d0: eef5 2e3e 5521 d83c 1c7e 4cbe 83db 313e
000003e0: 300e b13d 2d65 243e 181e 0c3e 500b 4ebd
000003f0: 887f 2bbd 4dcd 2abe 0029 533d 4672 d5bd
0.20346023 -0.115485646 -0.054469652 0.09263046 0.07951551 0.014819975 -0.035932202 -0.17103447
-0.05094952 -0.17015949 0.023947395 0.17153019 0.08328268 0.10484719 0.13890284 0.107334755
0.054333627 -0.10652357 -0.18401417 0.13011095 0.20329553 -0.111099586 0.06412195 0.15849882
0.021896204 0.117263064 -0.10068422 0.04512143 -0.06338953 0.08774919 -0.10962305 -0.06280998
-0.1287948 -0.19630572 0.09800962 -0.14942029 -0.084198326 0.17097627 0.01831884 0.19976483
-0.18337022 -0.14588009 0.03398411 -0.019314347 -0.003117656 0.043456312 -0.05298604 0.06625665
0.0058307676 -0.0022547904 -0.19423385 0.08940009 -0.035155136 0.11699486 0.189347 -0.07160523
0.1810186 -0.10855508 0.109353684 -0.054842733 0.11400123 0.122186385 -0.005627145 -0.16569693
0.080580175 0.1082575 -0.028394926 0.07323971 -0.001905191 0.18346964 0.011970887 -0.0452686
0.03938841 -0.04283323 -0.1518075 -0.16066664 0.029055605 -0.021580355 0.020401932 0.0027050087
-0.089329116 -0.1446142 -0.18098821 -0.14548765 -0.047766507 0.096937634 0.18211037 -0.10459736
-0.19919278 0.15535778 -0.17962982 -0.11642034 -0.19709805 0.05815063 0.16421221 0.11267615
0.16046774 -0.15823676 -0.13438343 0.18533395 -0.10816083 -0.07043615 0.08855832 0.030474417
-0.20001736 -0.056916703 0.100501664 0.00674505 0.19221364 -0.18633637 -0.11507235 0.1602
0.18769702 0.0790622 0.005791615 -0.09956867 -0.18744849 -0.08904809 0.1898849 -0.14954972
-0.001800411 0.13123745 0.18113087 0.1994121 -0.104047835 0.086956985 0.03139982 0.013180262
0.02155719 0.07688362 -0.17166677 0.09307966 -0.1826228 0.0034628997 -0.008291322 -0.09545468
-0.15261386 0.14817339 -0.037846614 0.08574228 -0.17096946 0.07846104 -0.13322543 -0.065938294
0.08804195 -0.06408577 0.017523475 -0.18152829 -0.032976583 0.04106258 0.17564128 -0.1821904
0.16699603 -0.03461418 -0.060156293 -0.0087392535 -0.108337365 -0.06232032 0.1972685 0.11387623
0.005853203 -0.11898269 0.09066183 0.015541122 0.08416723 0.01908695 0.016615396 0.18124351
0.040532716 0.1944906 0.032244362 -0.024527457 0.12966558 -0.03097778 0.19144535 -0.0046554115
0.1412448 -0.13390651 0.059318174 0.06759891 0.16303551 0.11185801 -0.00033624025 0.07643577
-0.1409295 -0.19926089 -0.048663925 0.16707806 -0.1298684 0.109603755 0.17040542 -0.14448354
-0.002169331 -0.08770563 -0.11796453 0.15450524 -0.009285272 -0.20191638 0.056144528 -0.08333431
0.02147353 0.087454945 -0.18397729 0.11653737 0.022293715 0.18401663 0.07560794 -0.05760203
-0.10450616 -0.033767104 -0.14434072 -0.051104598 0.0059884 -0.026295044 0.20401725 0.027836254
0.076533124 -0.1958775 0.16152032 -0.10895524 0.117275916 -0.044355605 -0.046118252 -0.17149357
-0.07758528 0.12430866 0.18459657 0.12742849 0.18108186 -0.07818345 -0.02595323 -0.08249775
-0.025619812 0.096957155 0.050467644 -0.10835496 -0.17333308 0.19614114 0.028358378 0.17184292
-0.1463499 -0.06990733 0.0066120434 0.17581627 0.17086002 0.026383081 -0.19969982 0.17368893
0.08645284 0.1605422 0.13683355 -0.050303757 -0.04186967 -0.16679879 0.051552773 -0.104221866

encoder.0.block.0.bias f4 [64]
00000000: 3a59 edbb 3042 49be b157 86bd d84e f63d
00000010: 87f6 2e3e ff07 383e 60fa ec3d 1408 4dbe
00000020: d62b 9bbc 6c4f 123e a00d 803d 3e2d 4f3e
00000030: 638e a03d c31c 423e dd9d e43b 31df 123e
00000040: f047 863b be16 6b3b 7201 1fbe cd07 1dbd
00000050: c150 8a3d 9ada ce3d 8840 33be b243 153e
00000060: d178 76bc 4133 4f3e 530c 893d a077 213d
00000070: 95b6 17be deb5 83bd e159 84bd 3ae3 0c3e
00000080: 1f8c 03be a804 c9bd 6880 093e e08f 95bc
00000090: 6b31 413d 0ad2 283e b753 c93c f35d 3fbd
000000a0: dcab 05be cff6 85bd fcb9 0bbe 5711 44be
000000b0: 0d35 bebd 729b 22bc 4cda 2cbe 5208 76bd
000000c0: 6bda 153e e5e0 da3b f13c 2abe 30ae 463e
000000d0: b978 b4bd a89a 0f3c cefb 27bd 08b9 3ebe
000000e0: ad5e c93d 2285 9dba bcaf 33be 9c7f c7bd
000000f0: d5d7 45be 5a96 16bd 7644 9abd f32b 173e
-0.0072433027 -0.19654155 -0.065596946 0.12026757 0.1708623 0.179718 0.11571193 -0.20022613
-0.018941801 0.1428811 0.06252599 0.20232102 0.07839658 0.18956284 0.0069768266 0.14342953
0.004097931 0.003587171 -0.15527895 -0.038337518 0.06753684 0.10100289 -0.17505085 0.14576605
-0.015043453 0.20234396 0.06691804 0.039420724 -0.14815743 -0.06431173 -0.064624555 0.13758555
-0.1284642 -0.09815341 0.1342789 -0.018257082 0.04716627 0.16486374 0.024576051 -0.046720456
-0.1305384 -0.06541216 -0.13645166 -0.1914724 -0.092874624 -0.009924756 -0.16880149 -0.06006653
0.14634101 0.0066796415 -0.1662481 0.19402385 -0.088120885 0.0087649 -0.041011624 -0.18625271
0.09832511 -0.0012017826 -0.17547506 -0.097411364 -0.19320615 -0.03676448 -0.07532589 0.14762859

encoder.0.block.1.weight f4 [64]
00000000: 0000 803f 0000 803f 0000 803f 0000 803f
00000010: 0000 803f 0000 803f 0000 803f 0000 803f
00000020: 0000 803f 0000 803f 0000 803f 0000 803f
00000030: 0000 803f 0000 803f 0000 803f 0000 803f
00000040: 0000 803f 0000 803f 0000 803f 0000 803f
00000050: 0000 803f 0000 803f 0000 803f 0000 803f
00000060: 0000 803f 0000 803f 0000 803f 0000 803f
00000070: 0000 803f 0000 803f 0000 803f 0000 803f
00000080: 0000 803f 0000 803f 0000 803f 0000 803f
00000090: 0000 803f 0000 803f 0000 803f 0000 803f
000000a0: 0000 803f 0000 803f 0000 803f 0000 803f
000000b0: 0000 803f 0000 803f 0000 803f 0000 803f
000000c0: 0000 803f 0000 803f 0000 803f 0000 803f
000000d0: 0000 803f 0000 803f 0000 803f 0000 803f
000000e0: 0000 803f 0000 803f 0000 803f 0000 803f
000000f0: 0000 803f 0000 803f 0000 803f 0000 803f
1.0 1.0 1.0 1.0 1.0 1.0 1.0 1.0
1.0 1.0 1.0 1.0 1.0 1.0 1.0 1.0
1.0 1.0 1.0 1.0 1.0 1.0 1.0 1.0
1.0 1.0 1.0 1.0 1.0 1.0 1.0 1.0
1.0 1.0 1.0 1.0 1.0 1.0 1.0 1.0
1.0 1.0 1.0 1.0 1.0 1.0 1.0 1.0
1.0 1.0 1.0 1.0 1.0 1.0 1.0 1.0
1.0 1.0 1.0 1.0 1.0 1.0 1.0 1.0

encoder.0.block.1.bias f4 [64]
00000000: 0000 0000 0000 0000 0000 0000 0000 0000
00000010: 0000 0000 0000 0000 0000 0000 0000 0000
00000020: 0000 0000 0000 0000 0000 0000 0000 0000
00000030: 0000 0000 0000 0000 0000 0000 0000 0000
00000040: 0000 0000 0000 0000 0000 0000 0000 0000
00000050: 0000 0000 0000 0000 0000 0000 0000 0000
00000060: 0000 0000 0000 0000 0000 0000 0000 0000
00000070: 0000 0000 0000 0000 0000 0000 0000 0000
00000080: 0000 0000 0000 0000 0000 0000 0000 0000
00000090: 0000 0000 0000 0000 0000 0000 0000 0000
000000a0: 0000 0000 0000 0000 0000 0000 0000 0000
000000b0: 0000 0000 0000 0000 0000 0000 0000 0000
000000c0: 0000 0000 0000 0000 0000 0000 0000 0000
000000d0: 0000 0000 0000 0000 0000 0000 0000 0000
000000e0: 0000 0000 0000 0000 0000 0000 0000 0000
000000f0: 0000 0000 0000 0000 0000 0000 0000 0000
0.0 0.0 0.0 0.0 0.0 0.0 0.0 0.0
0.0 0.0 0.0 0.0 0.0 0.0 0.0 0.0
0.0 0.0 0.0 0.0 0.0 0.0 0.0 0.0
0.0 0.0 0.0 0.0 0.0 0.0 0.0 0.0
0.0 0.0 0.0 0.0 0.0 0.0 0.0 0.0
0.0 0.0 0.0 0.0 0.0 0.0 0.0 0.0
0.0 0.0 0.0 0.0 0.0 0.0 0.0 0.0
0.0 0.0 0.0 0.0 0.0 0.0 0.0 0.0

encoder.0.block.1.running_mean f4 [64]
00000000: b37e 84be 434f 5ebe d990 7ebd 286b 9c3f
00000010: 6a62 e23d b3f2 ddbf ee67 1c3f 99aa d0bf
00000020: 2824 213f 7c01 203f 9fcd 03be 110f aa3e
00000030: 4fac 993f bd04 b53f 26d8 9fbf 85ba 0840
00000040: f5f2 ff3e 0d51 9ebf b970 323f 6c4e 98bf
00000050: 8cdd de3d 379a b03f 2b3b dabd e4a3 733f
00000060: 1717 e1bf c7e0 593f 45fe 053e 2021 c13f
00000070: 11cd 7dbe e0c2 963d 5bcb a23d a807 0c40
00000080: a63f ae3f 5043 ec3f 4a85 b93f 5793 303f
00000090: ba26 cebf 9855 3e3f 87c9 3abf 5a0c d33e
000000a0: d39c 8d3f b732 4cbf 9822 e53f 5c2c 773f
000000b0: 0fc1 553e 8ad1 26bf 2a1e a0bf daea 833e
000000c0: aebf 3bbf 1e3d 013f 9e74 7abd acc5 44bf
000000d0: 1b3d 83bf 19fc ab3e 2fb7 2c3f 91cd 06bf
000000e0: e08d 853d bbdf ff3e c907 bdbe 9d87 0f3f
000000f0: 417f b4bf 7f29 3e3f 6163 12bf 51b4 573f
-0.25877914 -0.21709923 -0.062149856 1.2220201 0.11053927 -1.7339691 0.61096084 -1.6302062
0.62945795 0.62502265 -0.12871407 0.3321462 1.200571 1.4142071 -1.2487838 2.1363842
0.4999005 -1.2368485 0.6970325 -1.1898932 0.108821005 1.3797063 -0.10655817 0.9517195
-1.7585171 0.8510861 0.13085277 1.5088234 -0.24785258 0.07361388 0.07948943 2.1879673
1.3613174 1.8458042 1.4493802 0.6897482 -1.6105568 0.74349356 -0.72963756 0.4122036
1.1063484 -0.79764885 1.7901182 0.9655206 0.20874427 -0.6516348 -1.2509205 0.25765115
-0.73339355 0.5048388 -0.06114637 -0.76864123 -1.0253023 0.33590773 0.67467016 -0.5265742
0.06521201 0.4997538 -0.36920002 0.56066304 -1.4101335 0.7428207 -0.5718289 0.84259516

encoder.0.block.1.running_var f4 [64]
00000000: 88ac 063f 62ea dc3e d882 363f 0888 4f40
00000010: 774c 8e3e 206e 1641 2db5 533f 38ce cb40
00000020: f8c3 fd3f 9bec 933f 81b0 273f 4bfa 033f
00000030: c665 6940 f5c0 b340 9e53 8540 9c10 2c41
00000040: dcc1 343f 2685 b640 03cd 0640 33ea 9a40
00000050: df4e 4d3e 9114 0b41 25cb e83f 69c7 6f40
00000060: 4f71 fa40 7489 0d40 b9eb 843e 6be4 b540
00000070: a95c 8b3e fb2d af3e 6b3b 5f3e 9262 4841
00000080: 77a6 ce40 aa2e 1c41 4169 af40 eb7b cc3f
00000090: e9c6 0541 5634 0540 f124 8f40 12d3 c33f
000000a0: 66c5 b440 acf9 f23f 8c29 1c41 c3c1 8840
000000b0: 3832 1640 bc5f a53f 41db 8340 3140 0d3f
000000c0: 7890 0840 95b3 0b40 0d0c 403e 8611 9140
000000d0: 657e 6740 cfba dd3e 4271 7240 49ec d43e
000000e0: 9586 b83f b01c 913f 98c9 0d3f 1fe2 b63f
000000f0: 5c84 7440 ec2d fc3f 56a3 603f 18d2 d33f
0.5260701 0.4314757 0.712934 3.2426777 0.27792713 9.401886 0.8269833 6.368923
1.982543 1.1556581 0.655037 0.5155379 3.6468368 5.6173043 4.166457 10.754055
0.70608306 5.7037535 2.106263 4.841089 0.20049618 8.692521 1.8186995 3.746546
7.8263316 2.2115145 0.25961092 5.684133 0.27219132 0.34214768 0.2180001 12.524065
6.4578204 9.761393 5.4815984 1.5975317 8.361062 2.0813193 4.4732594 1.5298789
5.6490965 1.8982444 9.760143 4.2736526 2.346815 1.2919841 4.1205144 0.55176073
2.1338177 2.1828358 0.18754597 4.533389 3.6170895 0.43306586 3.7881627 0.4158652
1.4416071 1.133688 0.5538573 1.4287757 3.8205786 1.9701514 0.8774923 1.654849

encoder.1.0.convs.1.weight f4 [64, 64, 3, 3]
00000000: 5b3c 8d3c cb3a 11bc 40c7 01bc 0016 74bc
00000010: 7e70 043d 7c69 0d3d 8eb3 9ebc ac6e 043d
00000020: f6ca a33c cb51 f03b 703f 0a3d 1e14 0a3d
00000030: fb6d c43c dbc5 bd3c a06f 7ebc 4a4d 023d
00000040: 64a3 2a3d 9272 16bd e073 bb3b 4ed5 f7bc
00000050: 3e0d 19bd 360a 183d 7a5d 26bd 20c0 c03b
00000060: 73bb 24bd 96c1 05bb bb8e 823c 8b0e fc3c
00000070: 30d7 453c b831 8cbc 56f3 2dbc 76f3 803c
00000080: 2bbd cd3a 2220 0b3d 341e 1f3d e44f 1b3d
00000090: 4098 00bd b6ad 03bd 40f8 5abc c680 263c
000000a0: 604d 11bc 2cfd 23bd ca69 05bd 46b6 bd3c
000000b0: b0ad 08bd cbb2 cf3c f845 89bc b6ed bbbb
000000c0: 16b8 253c af40 123d 3b90 5d3c 168b a13c
000000d0: 26cf a43c 98e3 21bd 708d a93c d06b 183c
000000e0: c84a f1bc f7f8 273d e293 233d 1fbe 293d
000000f0: 889f 03bd c8df a9bc 2051 0c3c 4b5e d1bc
00000100: ebba 9ebb 7b8e a43c 1642 82bc 70b0 0f3c
00000110: 36e5 b93c 9697 36bc 4e10 dc3c 6b1b 2cbc
00000120: c0c9 6c3b e762 00bd 009c e7b9 f8cb 023d
00000130: 58f4 fa3c db35 b93c 9699 e4bc 6ee1 f0bc
00000140: 0b0a 9fbb c63c 2abc f631 bf3b 62a8 13bd
00000150: f87f df3c 70ef 0fbd aef6 89bc fe93 89bc
00000160: 60fd 1b3d 2b92 703c 806e 26bd 0bd6 683c
00000170: 9410 15bd 40c3 97bb 4ea3 a03c a0e7 763c
00000180: 1042 18bc 0b19 b8bc 0b62 29bd 8cb7 0c3d
00000190: 7b67 8f3c 7627 7dbc 8a1e 1d3d f61a 2bbc
000001a0: 2845 d13c 2095 d2bb 7073 9b3c c079 e23c
000001b0: 939b 973c 30bc c5bc 03e2 22bd 8097 8f3b
000001c0: 1674 69bc e6de 2cbc 5691 b2b9 ab02 80ba
000001d0: 7b3c 5a3c 1e18 d7bc 567d 923b 8662 6f3c
000001e0: c867 28bd 9b66 dc3c 3386 1c3d 30de 623c
000001f0: c89e b53c 8697 adbc d025 09bc 80a2 2dbb
00000200: 6b42 8abc 56bf a339 3096 fcbc 406d e3bc
00000210: 2b56 59bc e79d 023d db2a aebc cc33 203d
00000220: 18d3 dd3c abed 563c 1647 223d d8d1 99bc
00000230: afb2 1c3d 00b0 8a3a 068c 59bc b0f4 993c
00000240: 48d1 1abd f0ee 5e3c 4b14 fc3c e046 aabc
00000250: 9016 03bd 5353 91bc 2a26 253d 3213 053d
00000260: 8b21 b73c c034 233b 80e3 dcba 364b cebb
00000270: 4387 223d eb6d f9bc 134f 133d b60d b6bb
00000280: 8b30 f53b 804b f03c 2b0c 183c c048 05bb
00000290: 00f8 b8ba 834f da3c 360f 5d3c f612 503c
000002a0: aea8 903c bea7 febc a810 d23c 66fe cdbc
000002b0: e66e 3dbc 73fb f83c 567f f1bc 00cf 243d
000002c0: f0d9 1cbc c6b2 3cbc be15 eebc 6087 11bd
000002d0: ac72 04bd 9810 c9bc 3e78 fdbc 706a 4ebc
000002e0: f0fe aa3c be2b 143d 2029 b2bc 8043 7fbc
000002f0: 93ae 1abd 784b e03c 686d ed3c ebe6 e1bb
00000300: a004 353c 5bc6 403c 0274 103d 5801 8a3c
00000310: 0031 9cbb 9b35 5fbc 56f1 7eba 16c4 ae3c
00000320: 4e67 c5bc 5b62 59bc 6634 963c 3b9c 16bd
00000330: 5042 c73c 208a 37bc 5642 25bc 00b7 2c3a
00000340: a052 253c 54a2 0c3d f697 913b efa0 1bbd
00000350: 0031 f1ba 9658 133b f6fd 19bd c69d 1b3d
00000360: abc8 ff39 cb12 ab3c 10f6 313c 9bf1 29bc
00000370: 5bcd 1d3d 98f7 a13c f2aa 1fbd 20d2 f4bb
00000380: 56b1 3bb9 b646 0e3d b619 b7bb 3b91 6abc
00000390: 43c1 dcbc d0ce 643c 0851 a9bc 3f12 0bbd
000003a0: f64b fb3c a072 bf3b a8c4 a23c 00a5 dc3b
000003b0: 408c 50bb c051 8cbc 6b6d 0c3c 7075 9cbc
000003c0: 9008 4fbc 3636 fbbb 06a1 723c 6ba4 c73b
000003d0: 3b83 0fbc 43a3 a0bc e63a c43c e402 133d
000003e0: d05f 023d e85c d1bc d67a d7bb 56cd c5bb
000003f0: b6e6 69bc 4bd8 9f3b 434a 963c 2b00 50bb
0.017240694 -0.008864115 -0.00792104 -0.014897823 0.032333843 0.034524426 -0.019372728 0.032332107
0.01999424 0.007333969 0.033751905 0.03371059 0.023978224 0.023165634 -0.015529543 0.03181199
0.041659728 -0.036730357 0.0057206005 -0.030253079 -0.037366144 0.037119113 -0.04061649 0.005882278
-0.040217828 -0.0020409576 0.0159372 0.030768653 0.0120752305 -0.017113551 -0.010617098 0.015741091
0.0015696635 0.03396619 0.038847163 0.037917987 -0.031395197 -0.032148086 -0.0133648515 0.010162538
-0.008868545 -0.040036365 -0.03257159 0.023158204 -0.033368766 0.02535381 -0.016756997 -0.0057351245
0.01011469 0.03570622 0.013523157 0.019719642 0.020118307 -0.03952369 0.020697325 0.009303048
-0.029454604 0.041008916 0.039935954 0.04144108 -0.032134563 -0.02073659 0.008564264 -0.025557658
-0.0048440597 0.020087471 -0.015900653 0.008770093 0.022692304 -0.011144539 0.026863243 -0.010504584
0.0036130995 -0.03134432 -0.00044175982 0.0319328 0.03063409 0.022608688 -0.027905267 -0.029404368
-0.004853492 -0.010390466 0.005834813 -0.036049254 0.0272827 -0.035140455 -0.016841259 -0.016794201
0.038083434 0.014683287 -0.040632725 0.014211188 -0.036392763 -0.00463143 0.01960912 0.015069872
-0.009293094 -0.022472879 -0.041353267 0.03435473 0.017505398 -0.015451303 0.038359202 -0.01044344
0.025545672 -0.0064264685 0.018975943 0.027645946 0.0185068 -0.024137586 -0.039766323 0.004382074
-0.014248868 -0.01055119 -0.0003405909 -0.000976642 0.013320084 -0.026256617 0.0044705076 0.014610892
-0.0411146 0.026904395 0.03821392 0.013846919 0.02217044 -0.021190416 -0.008370832 -0.0026494563
-0.016877374 0.0003123234 -0.030833334 -0.027762055 -0.013265173 0.03188887 -0.02126067 0.039111897
0.027078196 0.013118188 0.039618574 -0.01877682 0.038256343 0.0010581017 -0.013278013 0.018793434
-0.037797242 0.013606772 0.030771395 -0.020785749 -0.03200394 -0.017739927 0.0403196 0.03248901
0.022354862 0.0024903268 -0.0016852468 -0.006295587 0.039679777 -0.03044792 0.035964083 -0.0055558337
0.0074825934 0.029332876 0.009280245 -0.0020337552 -0.0014111996 0.026649242 0.013492396 0.012699833
0.017658558 -0.031085845 0.025642708 -0.02514572 -0.011562085 0.030393338 -0.029479664 0.040236473
-0.009573445 -0.011517232 -0.029063102 -0.035529494 -0.032335922 -0.024544045 -0.030941125 -0.012598619
0.020873517 0.03617453 -0.021748126 -0.015580058 -0.037764143 0.027379736 0.028982833 -0.0068939826
0.011048466 0.011766042 0.035266884 0.016846344 -0.0047665834 -0.01362362 -0.0009725293 0.021333735
-0.024097111 -0.013268079 0.018335532 -0.036770087 0.024323612 -0.011202365 -0.0100866165 0.00065885484
0.0100905 0.034334496 0.004443164 -0.037995275 -0.0018401444 0.0022483221 -0.03759571 0.03799226
0.000487869 0.020882985 0.0108618885 -0.010372545 0.03852592 0.019771382 -0.038981386 -0.007471338
-0.00017899773 0.034735404 -0.005587782 -0.014316852 -0.026947623 0.013965324 -0.020668522 -0.033952948
0.03067587 0.005842522 0.019869164 0.0067335367 -0.0031821877 -0.017128825 0.008571009 -0.019098967
-0.012636319 -0.0076663746 0.014808899 0.006092598 -0.008759315 -0.0196091 0.023953866 0.03589143
0.031829655 -0.025556996 -0.0065759225 -0.006036441 -0.014276197 0.004878079 0.018345958 -0.0031738381

encoder.1.0.convs.1.bias f4 [64]
00000000: 367e 923b dbf1 913c 3bc2 1d3d 60db cdbb
00000010: b795 0dbd 28d7 ba3c 26e3 1b3d 567e d6bb
00000020: 9633 213b 8e1b 0f3d 86cc 9bbc 3b93 65bc
00000030: 1cdd 02bd a67e 0b3c f606 fc3b 56ab 983a
00000040: 2e4c c2bc 8060 09bd 06d9 753c b02d 5e3c
00000050: 4b46 0abc 3627 5d3c c476 0fbd b63b 50bc
00000060: c0bb 223d c6d1 6f3c 96f4 0f3d 6650 bbbc
00000070: 8699 14bd c04a 91bb c3e6 d6bc eec3 b83c
00000080: 6b5f 32bc aeee 1c3d 548f 1cbd 43b0 d6bc
00000090: 6886 ebbc 268a 80bc 00b0 c3b8 5e2a 1fbd
000000a0: 1e20 953c e064 d93b c367 babc 96eb 35bc
000000b0: c68e 8d3c 0061 ebbb 869c 493c 7e06 f33c
000000c0: 0b36 793c 600a ba3c c080 3bbb 3815 c1bc
000000d0: c656 203d a0b5 dabb aa2f 213d 96b8 a93b
000000e0: 0ba3 ea3b 48ee ff3c 263c 17bd 94f2 21bd
000000f0: 7ee6 b4bc 40bd 98bb 069a fdbc e624 babc
0.004470612 0.017815521 0.03851531 -0.006282255 -0.034566607 0.022807673 0.038058423 -0.006545822
0.0024597398 0.034938388 -0.019018423 -0.014012153 -0.031949148 0.008514082 0.0076912595 0.0011647742
-0.023717966 -0.033539295 0.015005356 0.013560697 -0.008439611 0.013498118 -0.035025373 -0.012709549
0.039729834 0.014637416 0.035145365 -0.022865485 -0.036279224 -0.0044339597 -0.026233083 0.022554364
-0.010887007 0.03831356 -0.038222626 -0.026207095 -0.028750613 -0.015690874 -9.331107e-05 -0.038858764
0.018203791 0.0066343397 -0.022754556 -0.011103531 0.017279994 -0.007183194 0.0123053845 0.029666182
0.015210639 0.022710025 -0.0028610677 -0.023569688 0.039145254 -0.0066744834 0.039352097 0.005179475
0.0071605495 0.031241551 -0.036922596 -0.03953798 -0.022082563 -0.0046612322 -0.030957233 -0.022722673

encoder.1.0.convs.2.weight f4 [64]
00000000: 0000 803f 0000 803f 0000 803f 0000 803f
00000010: 0000 803f 0000 803f 0000 803f 0000 803f
00000020: 0000 803f 0000 803f 0000 803f 0000 803f
00000030: 0000 803f 0000 803f 0000 803f 0000 803f
00000040: 0000 803f 0000 803f 0000 803f 0000 803f
00000050: 0000 803f 0000 803f 0000 803f 0000 803f
00000060: 0000 803f 0000 803f 0000 803f 0000 803f
00000070: 0000 803f 0000 803f 0000 803f 0000 803f
00000080: 0000 803f 0000 803f 0000 803f 0000 803f
00000090: 0000 803f 0000 803f 0000 803f 0000 803f
000000a0: 0000 803f 0000 803f 0000 803f 0000 803f
000000b0: 0000 803f 0000 803f 0000 803f 0000 803f
000000c0: 0000 803f 0000 803f 0000 803f 0000 803f
000000d0: 0000 803f 0000 803f 0000 803f 0000 803f
000000e0: 0000 803f 0000 803f 0000 803f 0000 803f
000000f0: 0000 803f 0000 803f 0000 803f 0000 803f
1.0 1.0 1.0 1.0 1.0 1.0 1.0 1.0
1.0 1.0 1.0 1.0 1.0 1.0 1.0 1.0
1.0 1.0 1.0 1.0 1.0 1.0 1.0 1.0
1.0 1.0 1.0 1.0 1.0 1.0 1.0 1.0
1.0 1.0 1.0 1.0 1.0 1.0 1.0 1.0
1.0 1.0 1.0 1.0 1.0 1.0 1.0 1.0
1.0 1.0 1.0 1.0 1.0 1.0 1.0 1.0
1.0 1.0 1.0 1.0 1.0 1.0 1.0 1.0

encoder.1.0.convs.2.bias f4 [64]
00000000: 0000 0000 0000 0000 0000 0000 0000 0000
00000010: 0000 0000 0000 0000 0000 0000 0000 0000
00000020: 0000 0000 0000 0000 0000 0000 0000 0000
00000030: 0000 0000 0000 0000 0000 0000 0000 0000
00000040: 0000 0000 0000 0000 0000 0000 0000 0000
00000050: 0000 0000 0000 0000 0000 0000 0000 0000
00000060: 0000 0000 0000 0000 0000 0000 0000 0000
00000070: 0000 0000 0000 0000 0000 0000 0000 0000
00000080: 0000 0000 0000 0000 0000 0000 0000 0000
00000090: 0000 0000 0000 0000 0000 0000 0000 0000
000000a0: 0000 0000 0000 0000 0000 0000 0000 0000
000000b0: 0000 0000 0000 0000 0000 0000 0000 0000
000000c0: 0000 0000 0000 0000 0000 0000 0000 0000
000000d0: 0000 0000 0000 0000 0000 0000 0000 0000
000000e0: 0000 0000 0000 0000 0000 0000 0000 0000
000000f0: 0000 0000 0000 0000 0000 0000 0000 0000
0.0 0.0 0.0 0.0 0.0 0.0 0.0 0.0
0.0 0.0 0.0 0.0 0.0 0.0 0.0 0.0
0.0 0.0 0.0 0.0 0.0 0.0 0.0 0.0
0.0 0.0 0.0 0.0 0.0 0.0 0.0 0.0
0.0 0.0 0.0 0.0 0.0 0.0 0.0 0.0
0.0 0.0 0.0 0.0 0.0 0.0 0.0 0.0
0.0 0.0 0.0 0.0 0.0 0.0 0.0 0.0
0.0 0.0 0.0 0.0 0.0 0.0 0.0 0.0

encoder.1.0.convs.2.running_mean f4 [64]
00000000: 2b84 a33d 3f3c a0be e78f 73bd f6d6 61be
00000010: 3025 5b3c 1603 d23c 758a d83c 848f 1bbd
00000020: 5af4 773d 3ab9 573e 58f9 773e fa94 9b3e
00000030: d466 b8bd 30af 80be 3000 433e c657 71bd
00000040: b7a9 5fbc 2b93 80bd 4bfe 9cbd 5a0c 30bc
00000050: 0a08 00be ac7d d23d 9f7c 453e 31aa 8b3e
00000060: 3e6a c2bd ae8a 243e e254 bd3d 2395 a43e
00000070: 547c 063e 9795 b63e a428 a93c a95b 4f3d
00000080: a5d9 b73d 86ba 653c 3c97 1b3e 5c5a 6c3d
00000090: 4144 723d c43e a13d 1252 9dbd 8a1f c83c
000000a0: a696 d83d 7917 56be e48b 1e3d b086 9b3d
000000b0: cb27 153e c2e1 883e a01e 903e a146 f6bd
000000c0: 4756 b1bd b1e6 ed3d 0ebc dcbd 2852 58be
000000d0: c672 16be b6be a43e b299 c0bc 2636 abbd
000000e0: 4c49 df3d b2e8 513d 3963 50bd 9ee4 253e
000000f0: ff7b 893d c68c b93e 3ea4 993c 28cc 90be
0.079841934 -0.31295964 -0.059463408 -0.22054657 0.013375565 0.025636237 0.026433209 -0.037978664
0.060535766 0.21066752 0.24216211 0.30387098 -0.09003988 -0.25133657 0.1904304 -0.058921598
-0.013651303 -0.0627807 -0.0766569 -0.010745132 -0.12503067 0.10277876 0.1928582 0.27278283
-0.0949292 0.16068527 0.09244706 0.32145032 0.13133365 0.35661003 0.020649262 0.050624523
0.08977059 0.014021521 0.1519441 0.05770336 0.059147123 0.078733 -0.07681669 0.024429101
0.10575609 -0.20907392 0.03870763 0.07594049 0.14565961 0.2673474 0.28148365 -0.1202519
-0.08659034 0.116162665 -0.10778056 -0.2112509 -0.1469222 0.3217675 -0.023510788 -0.08359937
0.10902652 0.051247306 -0.050875876 0.16200492 0.067131035 0.36240214 0.018755075 -0.2828076

encoder.1.0.convs.2.running_var f4 [64]
00000000: 52b2 043d 797e 163e c6ef ee3d 9153 373d
00000010: c821 683d 603c 7a3d b319 9f3d 6541 c43d
00000020: aed7 673d 70b0 8b3d b5cd 113e 65d9 aa3d
00000030: 6a02 f63d 4754 e13d 4edd 2e3e fd6b 743d
00000040: c47b b93d 6bb7 173d 81a5 863d 00b5 4b3d
00000050: c61f 373d ae55 213d 4823 963d 4d03 353e
00000060: 5356 cc3d 5410 c73d 940f 953e dcf9 5c3e
00000070: 3a59 af3d 3422 483e ffc7 2e3d accc 363e
00000080: 5d0e 813d 8b77 0d3d 5d3a 7a3e 3c09 043e
00000090: 0fe5 383d 3c10 c63d 4777 1e3e 9de3 773d
000000a0: c073 593d ce9b 0a3e d1c2 613d 1bb9 9c3d
000000b0: 0581 8b3d c941 f33d d4a4 3b3e fc91 3d3e
000000c0: 1f9a 063e c8af 153e e0bb 9c3d b291 333e
000000d0: 31c8 c23d 8238 d73d 27cd 873d 2ef2 a23d
000000e0: a8ad b63d a9d7 6d3d 4997 3c3d 2a76 983d
000000f0: 07b8 793d b6b6 393e 7581 933d 4f9c 1e3d
0.032396622 0.14696683 0.11666827 0.04475743 0.05667284 0.061092734 0.077685736 0.095827855
0.056602173 0.06820762 0.14238627 0.08342246 0.12012179 0.11002403 0.17076609 0.0596733
0.090568095 0.037040155 0.06574536 0.049733162 0.044708036 0.03938835 0.07330948 0.1767704
0.099774025 0.09719911 0.29113448 0.21579689 0.085619405 0.19544297 0.0426712 0.17851514
0.06301568 0.034537833 0.24436326 0.12894148 0.045140322 0.09671065 0.15475188 0.060519803
0.053088903 0.13535997 0.055117432 0.076524936 0.06811718 0.11877782 0.18324596 0.1851272
0.1314473 0.14617836 0.07653022 0.17536047 0.0951084 0.10508825 0.066309266 0.07956348
0.08919841 0.058066998 0.046042714 0.07444413 0.060966518 0.18136105 0.07202426 0.038723286

encoder.1.0.convs.4.weight f4 [64, 64, 1, 1]
00000000: 30f4 4b3c d20a cd3d 5812 25bd 22e1 d5bd
00000010: dcb0 993d 02a8 bfbd cee7 e5bd 5871 81bd
00000020: c06e f53c 0cbf a6bd b455 1cbd 4885 643d
00000030: e894 413d f476 163d 5cc4 a63d 3c81 d1bd
00000040: 60ca f1bc 44d0 89bd 945a 6b3d bc1e 543d
00000050: 80c4 3e3b a028 d8bc f85d ac3d e0f5 d8bc
00000060: 20aa aabd 00a9 e63d 20fe cd3b d8e1 0c3d
00000070: 0466 103d 40b6 503b a41a 8d3d 9ac2 9fbd
00000080: ac71 863d f03a 413c 9086 353d bcdb bdbd
00000090: 3471 2b3d 9471 ed3d 18ee 9ebc e00a 83bb
000000a0: a0ea 8ebd c89a 0ebd 2ca9 fbbd 96f1 da3d
000000b0: a078 4f3c f41d b53d c856 acbc 9a23 b23d
000000c0: 6a2b e2bd cc5d febd 60c9 f33c b2c6 c8bd
000000d0: 48c8 70bd 20ed 53bc c012 bebd 007c cc39
000000e0: 280c f4bc 3206 d03d 307f ecbd 08bb 803d
000000f0: 70e4 69bd c02d e63b 98a5 67bd fabf 813d
00000100: d04c 4cbd 4499 9a3d 9823 dbbd 90d9 1d3d
00000110: 5044 ac3c fe3b f8bd f81b e0bd a6d7 b23d
00000120: 4ef3 cfbd 50f7 7bbc 185d 43bd 6ada ac3d
00000130: 8003 8fbb c07f db3b 18e6 aabc e87d 233d
00000140: 8c38 7cbd a0b6 96bc b8d6 5fbd e045 f53c
00000150: c827 83bc 6044 a3bc 8060 85ba b82f 643d
00000160: 10fe 63bd 7c9f e83d 64b7 283d bc2d 823d
00000170: 24b8 44bd ec34 2dbd d870 8dbd 20e6 dfbc
00000180: 147b 2cbd aad5 abbd f610 a0bd 1a35 f3bd
00000190: d47f 2e3d 82f4 a4bd 08fe 533d 0ce7 b63d
000001a0: 7ca1 0d3d c05a cabc 00f4 54b9 903a 5bbc
000001b0: 8e2c e13d 782d 463d 80ee 573b 6883 dabc
000001c0: 48d0 0c3d d02a cdbd 002c 78b9 d03f bdbd
000001d0: 4c0e b83d 90c9 da3d 94dd 89bd 0c79 dabd
000001e0: 00e9 803b d84c c5bc 5e81 a53d 30da b4bd
000001f0: 3c09 243d d479 803d 9853 babd a038 f93d
00000200: 2829 6c3d 0886 d2bd c0c2 503b 1014 efbd
00000210: f041 2cbc 105d 5e3c da6d ad3d 042e 82bd
00000220: d686 e73d d841 ca3d 4cea 283d f062 c53c
00000230: ec4e ad3d 5cab 6dbd 1424 b1bd b8ba f93c
00000240: 32ae ab3d d4b6 8abd f8eb 8bbc dc66 ac3d
00000250: 247e 103d c0f5 af3c 6ebb b6bd 40d9 483c
00000260: d0a2 9abd 90d5 f4bd 242b 903d c0bd f63d
00000270: 7ac8 fabd e29a b53d 145c 9e3d 40ff 8cbc
00000280: 4e6c 9ebd 085c d03d 084f 533d 70e0 e4bc
00000290: e0d2 b93c de26 ddbd 84a7 a8bd 38d1 9b3c
000002a0: c458 b73d 20fc 303c 0ab6 c7bd c889 953c
000002b0: ee4b 9ebd 923b 8abd 300b 643c 9062 563c
000002c0: a22e e43d 74f5 643d a47b 053d dc6f fcbd
000002d0: e8d8 bf3d c097 f9bc d04c b5bc cceb eebd
000002e0: 782e 233d 106c 22bd 105a 4ebd 24a4 a5bd
000002f0: 24f6 cc3d 4c1b e63d a069 0e3c 08f1 273d
00000300: f449 21bd 988f 4c3d f860 c1bc 627c e23d
00000310: aead fdbd 4ca5 16bd c09c da3d 60db e0bb
00000320: 6897 8dbc 8201 8bbd 6c38 77bd a8a6 993c
00000330: 306a bb3d 6660 f73d 6c06 cc3d 16ba b4bd
00000340: aa5c fcbd b019 bd3d 7805 f03d f0d7 a63d
00000350: 3c6d f63d 3c23 e23d c4a6 48bd 00b9 60bb
00000360: 28e6 93bc 3655 ed3d fc45 463d c84e 9fbd
00000370: 1011 b33c 6a38 e43d 0cbf 8b3d 00f7 44bc
00000380: e052 80bc 1481 813d f23e d3bd 68d2 793d
00000390: 4cce 7bbd c8ae aa3d b0ae 7dbc c0e4 6a3d
000003a0: 78ff 21bd 7ccc 4abd a05e d9bc 209f 79bc
000003b0: 7e15 c9bd 3850 033d a0e8 3abd 60de b13b
000003c0: 80d0 733c 2674 cdbd 5206 a3bd 185d 85bd
000003d0: 0c50 25bd ae5f a3bd 983f f9bc 3020 54bd
000003e0: 48ca e23c c649 843d fc65 193d c03b 5c3c
000003f0: f67b c43d 20dd cbbc a07c fb3d 0239 dc3d
0.012448356 0.100118294 -0.040300697 -0.10443331 0.075044364 -0.09358217 -0.11225854 -0.06320447
0.029960036 -0.08141908 -0.03816767 0.05579117 0.04726115 0.036734536 0.08142921 -0.102297276
-0.029515445 -0.06729177 0.05745943 0.051787123 0.0029108822 -0.026386559 0.084163606 -0.02648443
-0.0833323 0.11262703 0.0062863976 0.03439507 0.03525354 0.003184691 0.06889847 -0.07800789
0.0656465 0.011793837 0.044317782 -0.09270427 0.041856006 0.11593929 -0.019400641 -0.003999099
-0.06978345 -0.03481558 -0.12288126 0.1069061 0.012663037 0.08843604 -0.021037474 0.08698197
-0.11043437 -0.12420234 0.029759109 -0.09803523 -0.058784753 -0.012934953 -0.0928092 0.000390023
-0.029790953 0.10157432 -0.115476966 0.062856734 -0.05710262 0.007024497 -0.056554407 0.06335445
-0.04987794 0.07548764 -0.10700148 0.038537562 0.021028668 -0.121208176 -0.109428346 0.08732538
-0.101538286 -0.015378788 -0.047696203 0.08440097 -0.004364431 0.0066985786 -0.02086167 0.039914995
-0.061577365 -0.01839763 -0.05464813 0.029940546 -0.01601018 -0.019930065 -0.0010175854 0.05570957
-0.055662215 0.11358544 0.04119052 0.063563794 -0.048027173 -0.0422868 -0.06906289 -0.027331412
-0.042109564 -0.083903626 -0.07815735 -0.11875363 0.042602375 -0.08054449 0.051755935 0.089307874
0.03457783 -0.024701476 -0.00020308793 -0.013380662 0.10994826 0.048383206 0.0032948554 -0.026673988
0.03437832 -0.100179315 -0.00023667514 -0.09240687 0.08987102 0.10682976 -0.06731716 -0.10667619
0.0039340258 -0.024084494 0.080813155 -0.088306785 0.04004787 0.06273237 -0.090979755 0.121690035
0.057656437 -0.10279471 0.0031854361 -0.116737485 -0.010513768 0.0135719925 0.08468218 -0.06356433
0.11305015 0.0987584 0.041239068 0.024095029 0.08462319 -0.05802475 -0.086494595 0.030484542
0.083828345 -0.06773153 -0.017080292 0.08418056 0.035276547 0.021479487 -0.08922468 0.012258828
-0.07550585 -0.11954796 0.070394784 0.12047911 -0.12245269 0.08867432 0.07732406 -0.017211556
-0.07735501 0.101738036 0.051589042 -0.027939051 0.02268356 -0.10798429 -0.08235076 0.019020662
0.089524776 0.010802299 -0.09751518 0.018254176 -0.07729326 -0.067496434 0.013918683 0.013085023
0.11141707 0.055898145 0.032588616 -0.12326023 0.093675435 -0.030467868 -0.022131354 -0.116660684
0.039839238 -0.039653838 -0.05037886 -0.08087948 0.10007885 0.11235675 0.008692175 0.04100135
-0.039377168 0.04994163 -0.023605809 0.110588804 -0.123866424 -0.036778733 0.10674429 -0.006862089
-0.01728411 -0.06787397 -0.060356542 0.018756226 0.09151113 0.120789334 0.099621624 -0.088245556
-0.12322362 0.09233415 0.11719793 0.081466556 0.120325536 0.11041877 -0.048987165 -0.0034289956
-0.018054083 0.11588518 0.048406586 -0.07778698 0.021858722 0.11143573 0.06823549 -0.01202178
-0.015664518 0.06323448 -0.1031474 0.060991675 -0.061476037 0.08334118 -0.015483543 0.05734706
-0.039550275 -0.049511418 -0.026534379 -0.015235692 -0.098185524 0.032058924 -0.045632005 0.0054281205
0.014881253 -0.10031919 -0.0796019 -0.06511897 -0.04035954 -0.07977234 -0.030425832 -0.05178851
0.027684346 0.06459384 0.037450776 0.01344198 0.09593956 -0.024885714 0.1227963 0.10753061

encoder.1.0.convs.4.bias f4 [64]
00000000: 9268 9ebd ae64 e6bd 306e b73d 9662 b1bd
00000010: 7c44 ccbd 30ec 57bd 1297 f8bd a8a6 b5bc
00000020: a440 583d 28a0 fe3d ac69 923d a4b9 1bbd
00000030: a0cb abbd 404c 5dbc d8ee c83c aecd 88bd
00000040: 1831 69bd c2d9 82bd 78ed 0b3d 00d7 54bd
00000050: ae5c ef3d be3d 85bd e8b3 08bd 4022 953c
00000060: 2014 cabd 8cec bb3d fafc a23d c6f8 c3bd
00000070: 641e 52bd 00e1 d8ba 20af b6bc 0063 0cbb
00000080: a880 65bd 7c67 3bbd c023 213c e2b1 863d
00000090: 2011 d0bd 529d fc3d 48f0 c0bc 42f5 ee3d
000000a0: ba8f 9dbd e0ba 433c b0e8 be3d fc5b fcbd
000000b0: 8053 4fbd 54a0 f6bd 9834 42bd e4dd 68bd
000000c0: fe3e bfbd 0092 80bd b86c 59bd 649d d6bd
000000d0: 9463 9e3d f8db a03c f2fa eb3d dcbb 4ebd
000000e0: b4a9 37bd 00a0 e739 90ce b53c 103c ac3c
000000f0: 589d 893c ccd4 1f3d 1076 c6bd 16de d03d
-0.07734789 -0.11249672 0.089565635 -0.08661382 -0.09974 -0.05271548 -0.121381894 -0.022174194
0.05279602 0.12432891 0.071490616 -0.038018838 -0.08388448 -0.013506949 0.024527952 -0.06679855
-0.056931585 -0.0638919 0.034162015 -0.051962852 0.11687599 -0.06505917 -0.033374697 0.018204808
-0.0986712 0.09175977 0.07958408 -0.09568934 -0.051298514 -0.0016546547 -0.022300303 -0.0021421313
-0.0560309 -0.045752987 0.009835184 0.06576897 -0.10159516 0.12334694 -0.023552075 0.11667873
-0.07693429 0.01194641 0.09321725 -0.12322232 -0.05061674 -0.12042299 -0.04741344 -0.056852236
-0.09338187 -0.06277847 -0.053082198 -0.10479239 0.07733837 0.01963614 0.115224734 -0.050472125
-0.044839576 0.00044178963 0.022193223 0.021024734 0.01679866 0.0390213 -0.096904874 0.101986095

encoder.1.1.weight f4 [64]
00000000: 0000 803f 0000 803f 0000 803f 0000 803f
00000010: 0000 803f 0000 803f 0000 803f 0000 803f
00000020: 0000 803f 0000 803f 0000 803f 0000 803f
00000030: 0000 803f 0000 803f 0000 803f 0000 803f
00000040: 0000 803f 0000 803f 0000 803f 0000 803f
00000050: 0000 803f 0000 803f 0000 803f 0000 803f
00000060: 0000 803f 0000 803f 0000 803f 0000 803f
00000070: 0000 803f 0000 803f 0000 803f 0000 803f
00000080: 0000 803f 0000 803f 0000 803f 0000 803f
00000090: 0000 803f 0000 803f 0000 803f 0000 803f
000000a0: 0000 803f 0000 803f 0000 803f 0000 803f
000000b0: 0000 803f 0000 803f 0000 803f 0000 803f
000000c0: 0000 803f 0000 803f 0000 803f 0000 803f
000000d0: 0000 803f 0000 803f 0000 803f 0000 803f
000000e0: 0000 803f 0000 803f 0000 803f 0000 803f
000000f0: 0000 803f 0000 803f 0000 803f 0000 803f
1.0 1.0 1.0 1.0 1.0 1.0 1.0 1.0
1.0 1.0 1.0 1.0 1.0 1.0 1.0 1.0
1.0 1.0 1.0 1.0 1.0 1.0 1.0 1.0
1.0 1.0 1.0 1.0 1.0 1.0 1.0 1.0
1.0 1.0 1.0 1.0 1.0 1.0 1.0 1.0
1.0 1.0 1.0 1.0 1.0 1.0 1.0 1.0
1.0 1.0 1.0 1.0 1.0 1.0 1.0 1.0
1.0 1.0 1.0 1.0 1.0 1.0 1.0 1.0

encoder.1.1.bias f4 [64]
00000000: 0000 0000 0000 0000 0000 0000 0000 0000
00000010: 0000 0000 0000 0000 0000 0000 0000 0000
00000020: 0000 0000 0000 0000 0000 0000 0000 0000
00000030: 0000 0000 0000 0000 0000 0000 0000 0000
00000040: 0000 0000 0000 0000 0000 0000 0000 0000
00000050: 0000 0000 0000 0000 0000 0000 0000 0000
00000060: 0000 0000 0000 0000 0000 0000 0000 0000
00000070: 0000 0000 0000 0000 0000 0000 0000 0000
00000080: 0000 0000 0000 0000 0000 0000 0000 0000
00000090: 0000 0000 0000 0000 0000 0000 0000 0000
000000a0: 0000 0000 0000 0000 0000 0000 0000 0000
000000b0: 0000 0000 0000 0000 0000 0000 0000 0000
000000c0: 0000 0000 0000 0000 0000 0000 0000 0000
000000d0: 0000 0000 0000 0000 0000 0000 0000 0000
000000e0: 0000 0000 0000 0000 0000 0000 0000 0000
000000f0: 0000 0000 0000 0000 0000 0000 0000 0000
0.0 0.0 0.0 0.0 0.0 0.0 0.0 0.0
0.0 0.0 0.0 0.0 0.0 0.0 0.0 0.0
0.0 0.0 0.0 0.0 0.0 0.0 0.0 0.0
0.0 0.0 0.0 0.0 0.0 0.0 0.0 0.0
0.0 0.0 0.0 0.0 0.0 0.0 0.0 0.0
0.0 0.0 0.0 0.0 0.0 0.0 0.0 0.0
0.0 0.0 0.0 0.0 0.0 0.0 0.0 0.0
0.0 0.0 0.0 0.0 0.0 0.0 0.0 0.0

encoder.1.1.running_mean f4 [64]
00000000: 9a3a 2b3e adf5 c23d 5728 fc3e 7ea1 113f
00000010: b639 ae3d 3ed6 123f 6fbf 60bc eb55 f33e
00000020: 81dc b53e a6ac 033f ead4 6f3e 4e04 853e
00000030: 021a bf3e 0dad 94bd 7249 ae3e 1713 013e
00000040: cfa5 963e 486e 64bd 1e1b 443f 93cb 883e
00000050: 9602 8e3e 256d 5e3e 5d75 013f 9c1d e93e
00000060: a1ae ea3e c4c1 013f 637e a23e a72f e6bd
00000070: e36c 933e 0e40 4d3f 1d98 7e3e df62 113f
00000080: 00c3 e03e 6e20 aa3e 1364 053f ec7d 053f
00000090: b1bf c13e 3dcf 363f 77c6 123f 1eff ca3e
000000a0: 958a 913e 714c fb3e 21e0 de3e 5193 e73e
000000b0: 6af6 2d3e fee4 463e abd5 e93e 736e 0d3f
000000c0: b4ee 213f ce31 a63e 0158 f6bd 6a29 c13e
000000d0: 3242 3b3e 45e0 4e3f ed54 a13e 7d32 8d3e
000000e0: 0526 3a3f d4b9 fd3e 9bd5 b73e cdde 133f
000000f0: 6615 b13e 5903 953e 32c5 95bd e939 9e3e
0.16721573 0.09519515 0.49249527 0.5688704 0.08507101 0.5735816 -0.013717516 0.47526488
0.35519794 0.51435316 0.23421064 0.25979847 0.3732453 -0.07259569 0.3404041 0.12604938
0.29423377 -0.055769235 0.7660388 0.26717815 0.27736348 0.21721323 0.5056971 0.45530403
0.45836356 0.5068629 0.3173705 -0.11239558 0.2879401 0.80175865 0.24862714 0.5679149
0.43898773 0.33227867 0.52105826 0.52145267 0.3784156 0.7140997 0.57334083 0.39647764
0.28426042 0.49081758 0.43530372 0.4522958 0.16988531 0.19423291 0.45670828 0.5524666
0.6325486 0.32459873 -0.12028504 0.3772691 0.1828697 0.8081096 0.31510106 0.27577582
0.72714263 0.49555838 0.35905156 0.5776184 0.34586638 0.29104117 -0.07313003 0.30903557

encoder.1.1.running_var f4 [64]
00000000: 6eb8 a93e 9aab 063f e26f 233f 392d 473f
00000010: 5137 cf3e 93bb 233e 85cb 033f dab7 853e
00000020: b60c 9c3e 190b 343f b204 2e3f 7938 d43e
00000030: 7f84 283f 9f83 013f 4a1d 483e 7797 f13e
00000040: 0451 ef3e c327 753e 2c3e 123f 56d9 8a3e
00000050: 8103 013f c2fe 343f 1c7c ed3e 9bda 173f
00000060: 17b5 093f 171e 353f 60ab 073f e630 8d3f
00000070: 52e0 d53e d9eb 9f3f 7fa3 f43e c7e3 093f
00000080: 732e cd3e c468 f83e 2452 5e3f d3dd 1f3f
00000090: fc9f 913e a7af 5a3f f044 2e3e cb8c 183f
000000a0: d720 dc3e d274 e43e 11c3 0e3f 612b 773f
000000b0: c417 df3e 94e5 7a3e 8b8b aa3e 613e 463f
000000c0: 2c8c 8f3e 44b4 483f 52ad a33e 56a1 923e
000000d0: fad6 c23e 3695 363f ab95 023f 05d2 f83e
000000e0: e4f8 f43e c433 c13f 4936 c03e 771c 2f3f
000000f0: cd51 d83e a846 083f 7392 c63e a70c f03e
0.3314852 0.52605593 0.63842595 0.7780338 0.4047189 0.15989523 0.5148242 0.2611683
0.30478448 0.70329434 0.67975914 0.41449335 0.65827173 0.5059146 0.19542423 0.4718587
0.46741498 0.23940949 0.57126117 0.2711894 0.5039597 0.7070123 0.4638375 0.5931794
0.53791946 0.7074904 0.5299587 1.1030548 0.41772705 1.249385 0.47780988 0.53863186
0.400745 0.4851743 0.86844087 0.6244785 0.2844237 0.85424274 0.17018485 0.59589833
0.42993805 0.44620377 0.557664 0.96550566 0.4357282 0.2450164 0.33309588 0.7743893
0.2803663 0.78400064 0.3196817 0.28638715 0.3805464 0.7132143 0.51009625 0.48597732
0.47846138 1.5093923 0.37541416 0.6840281 0.4224991 0.5323281 0.38783607 0.46884653

encoder.2.0.convs.1.weight f4 [64, 64, 3, 3]
00000000: abd6 67bc f38e 87bc cb0a 5a3c d6c4 0f3b
00000010: 88fd 0a3d 2ff0 15bd e4a2 17bd bbcc 91bc
00000020: c69e 1cbd afee 1cbd 0b87 02bd 8b75 b83b
00000030: 4679 12bc 9848 c83c b6f2 533c d43d 203d
00000040: abb7 6c3a 78a1 b7bc 2bd7 04bb cb93 94bc
00000050: ee46 d1bc ebfb c6bc 00a2 1cbb 82a4 04bd
00000060: c05b 073d fbbc 13bd 5bd3 9b3c c83a ff3c
00000070: 809a be3b cbd5 45bc 868d 9d3c 0008 5fbc
00000080: bcdb 0f3d 00f8 783c 60d2 85bc e824 c33c
00000090: e0dc cb3b b694 e8bc 6bd5 8cbb ae8d 9d3c
000000a0: 3674 1e3d 4029 21bc 0ee7 a3bc 2b7f 1a3d
000000b0: abb6 a339 f890 f03c 1b99 0c3d 0ede 193d
000000c0: 0071 9d3b f8c0 083d 8090 a43b 40f7 693b
000000d0: 5bc4 603c 5873 e7bc 1b05 afbc b00a 913c
000000e0: 889f 163d c719 26bd abab 233d b357 e2bc
000000f0: 7e1f bebc f0ae fb3c 28ac 903c 1b40 b8bc
00000100: 87e4 163d a0c1 af3c 3669 79bc 30f7 febc
00000110: e0b7 ccbc 2b2f 403c 800f 203c 2a5e 24bd
00000120: 3e81 c53c 0e87 0fbd cb8e b2bc 4bf9 953c
00000130: eb2d de3c 0bff 843b ab70 1fbb ebb2 45bb
00000140: e399 90bc 0b8e 003c 0324 f0bc 9b9c 1dbd
00000150: 5382 dcbc ab4e 66ba 5615 e4b8 e3ea 173d
00000160: d835 263d 16f1 78bb f712 16bd 386b b53c
00000170: 8ba6 e2bc 667d 583c ab8e d73c d03a 75bc
00000180: db10 203d b049 0e3d 00b6 c73a abd6 bebb
00000190: 9044 bdbc aebe 243d 0be9 00bc 96e2 573b
000001a0: f653 13bd 4e6d b83c 8e6c 1dbd 0030 6fb8
000001b0: 00b4 073b 6b59 b3bb 8690 253c 201b 8d3b
000001c0: dbbd e33c 647a 14bd d6be 9fbc bb40 bf3c
000001d0: c8b1 843c d696 7abc dbe4 82bc 5387 e73c
000001e0: 9821 ccbc ab31 cc3a 0074 973c 6e3e 11bd
000001f0: 4f7e 25bd d062 443c db09 99bc 1625 103b
00000200: fb2f 1e3c 0ec3 263d 044a 1ebd e2ab 023d
00000210: ff0a 04bd 408e fabc 86b3 293d 8689 373c
00000220: 5620 65bb e6b7 f53c 001a 363c 7659 313c
00000230: 36ce 953c 6877 d93c db37 1bbc 6e50 c33c
00000240: 83b9 d6bc 97eb 1bbd bb66 20bc 605b f5bc
00000250: 6f7d 023d bbd9 08bd bcb5 07bd 4e05 b1bc
00000260: 8b99 a4bb 1069 683c 2a9a 0e3d b651 4fbc
00000270: e68f c33c 489e cdbc 0b16 473c 8ef0 bebc
00000280: ab0e c0bb 1021 3abc c8eb efbc ae36 833c
00000290: 234e 153d 1b50 563c abba 3bbc 10ae 43bc
000002a0: 6214 113d 20a6 af3c fb8d c8bc 607a 083d
000002b0: 3080 24bd 1037 493c 462c d8bc 30d9 08bc
000002c0: 4837 cf3c 303d 7f3c 4b06 83bc 7668 11bc
000002d0: 4b94 b83b ab02 faba f32e c5bc 43f1 143d
000002e0: 4ef0 87bc bbad 26bd 20e2 7dbc 36f1 13bd
000002f0: 8635 1c3c d331 8f3c 76c3 0a3c 5b77 d5bc
00000300: 909d b1bc 56b8 da3c e05e 28bc 666c 85bc
00000310: e87d 80bc 03f1 94bc 50f0 fc3c 46f9 5c3c
00000320: e71f 0e3d b6b3 aebb 2e7c db3c 84dd 25bd
00000330: 6e0f 923c f00c febc e3e0 a7bc d64c 8c3c
00000340: 5059 bdbc a0ee c03c a361 bbbc 08d0 103d
00000350: 9cd2 243d 5b40 7a3c 96dd a63b ab24 5a3a
00000360: b30e 8e3c abc9 f9ba 9684 943c d6b5 cdbb
00000370: 1abd 01bd 5e04 973c 5c5b 0cbd 9b9d 083c
00000380: c670 0e3d 8080 07bd c0d7 c1bc e657 603c
00000390: d057 fbbc 90a6 9d3c cf78 0e3d ab8b 96bb
000003a0: 5632 353b c6ef 09bc 5beb 243d 8ee5 81bc
000003b0: fc49 233d 3306 cabc 3322 b1bc e054 a73c
000003c0: 903b 983c 47ce 293d d3af afbc 4b61 8bbc
000003d0: 60dc f1bb 785c e33c 9434 0fbd d8eb aabc
000003e0: 80e8 b4ba 0091 b23a 93d1 ff3c 6600 5a3c
000003f0: 5636 8ebb 3062 cb3c 63cd c7bc 0b33 b8bc
-0.014150302 -0.016547656 0.013308237 0.0021937392 0.033933192 -0.03660601 -0.03702058 -0.017797818
-0.038237356 -0.038313564 -0.03186707 0.0056292466 -0.008940047 0.024448678 0.012936285 0.039121464
0.0009030054 -0.022415861 -0.0020269852 -0.01813688 -0.025546517 -0.024290046 -0.002390027 -0.03238345
0.033046484 -0.036068898 0.01902168 0.031155959 0.0058167577 -0.012074898 0.019232523 -0.013612747
0.035121664 0.015195847 -0.016335666 0.02382131 0.0062213987 -0.028391223 -0.0042979023 0.019232597
0.038685046 -0.009836495 -0.020007636 0.037718933 0.0003122588 0.029366001 0.0343257 0.037565283
0.0048047304 0.033387154 0.0050221086 0.003570035 0.01371869 -0.028253242 -0.02136474 0.017705292
0.036773235 -0.040551927 0.039958637 -0.027629709 -0.023208376 0.030723065 0.017660215 -0.022491505
0.036839034 0.021454632 -0.015222838 -0.031123728 -0.024990022 0.011729996 0.0097693205 -0.040128864
0.024109479 -0.035040908 -0.021796605 0.018307349 0.027121505 0.004058724 -0.002432863 -0.0030166458
-0.017651504 0.007846366 -0.029314047 -0.03847943 -0.026917612 -0.0008785526 -0.00010875861 0.03708924
0.040578693 -0.0037985495 -0.03663918 0.022145852 -0.027667305 0.013213491 0.026313147 -0.014967635
0.039078575 0.034738243 0.0015236735 -0.0058239303 -0.023103982 0.04022091 -0.007868062 0.0032941452
-0.035968743 0.022513058 -0.038433604 -5.7026744e-05 0.0020706654 -0.005473306 0.010105258 0.004306212
0.027800491 -0.036249533 -0.019500177 0.023346296 0.016198054 -0.015294751 -0.015978267 0.02826277
-0.024918362 0.0015578767 0.01848793 -0.03545993 -0.04040366 0.011986449 -0.018681457 0.0021994761
0.009654994 0.040713362 -0.038644806 0.0319022 -0.03223705 -0.030585408 0.041430973 0.011202222
-0.00349619 0.029994916 0.011114597 0.010824552 0.018286806 0.026546195 -0.009473766 0.023842063
-0.026211506 -0.038066473 -0.009790118 -0.029950798 0.031857904 -0.03341077 -0.0331323 -0.021608975
-0.0050231866 0.014185205 0.03481499 -0.012653759 0.023872327 -0.025099888 0.012151252 -0.023308065
-0.0058611236 -0.011360422 -0.029287234 0.016017284 0.03645147 0.013080622 -0.011458079 -0.011943355
0.03541983 0.02144152 -0.024481764 0.03331983 -0.04016131 0.012281194 -0.026388299 -0.008352563
0.025294915 0.015578553 -0.015994212 -0.008875003 0.0056329123 -0.0019074281 -0.024070239 0.036362898
-0.016594078 -0.040693026 -0.015495807 -0.03611871 0.009534245 0.017479813 0.008469453 -0.02605789
-0.021681577 0.026699226 -0.010276526 -0.01628704 -0.015685037 -0.01818133 0.030876309 0.013487166
0.034698393 -0.005331482 0.026792612 -0.040494457 0.017829623 -0.031012028 -0.020492977 0.017126482
-0.023113877 0.023551285 -0.022873705 0.035354644 0.040239915 0.015274133 0.005092333 0.0008321504
0.017340994 -0.0019057294 0.018129628 -0.00627778 -0.031674482 0.0184347 -0.034266815 0.008338357
0.034775518 -0.03308153 -0.023662448 0.013692832 -0.03068152 0.019244462 0.03478318 -0.0045942864
0.002764841 -0.008418983 0.040263515 -0.01585653 0.03986548 -0.02466116 -0.021622753 0.020426214
0.01858309 0.041456487 -0.021446144 -0.017014166 -0.007381007 0.027754053 -0.03496225 -0.020864412
-0.00138022 0.0013623536 0.031227862 0.013305759 -0.0043399734 0.024827093 -0.024389928 -0.022485277

encoder.2.0.convs.1.bias f4 [64]
00000000: 8072 f8bc ec87 27bd 00e8 fd3a bb9d 0cbd
00000010: a0cb 74bc aa2d 25bd 70af 293c 28b3 c43c
00000020: 7b30 263d cbb7 c5bc fb71 d93c d6bf 503c
00000030: ab9c 3cbc 9646 5fbb fb12 013c 4210 18bd
00000040: 284b f2bc 16b2 14bb 96c1 4e3b 2036 68bc
00000050: 0b4e f43c b8ea c4bc 1aac 163d 88d5 10bd
00000060: 0b76 243c ce7f 093d aa61 26bd d6ed 8d3c
00000070: 9287 06bd 3622 fb3c 369e a63c d6a1 423c
00000080: b678 073d 18b9 fbbc 00c6 263b ab2a 38b7
00000090: 0800 cfbc 5e22 d9bc 383f b13c e040 183d
000000a0: 167e 06bb 07be 0d3d 66c9 75bc fb76 53bc
000000b0: 3002 43bc 488a a13c d66b 8a3c c31b dcbc
000000c0: 2e25 81bc c078 bebb 2642 083c 905d 703c
000000d0: 7699 06bc d2f6 1dbd ce93 d53c c090 6bbc
000000e0: 53bc d33c 68c1 f63c 806c af3c 8071 c9ba
000000f0: ebb7 5cbc d462 0a3d 2b27 733b e795 0fbd
-0.030328035 -0.04090111 0.001937151 -0.03433011 -0.014941126 -0.04032675 0.010356769 0.02401121
0.04057358 -0.02413549 0.026543608 0.01274105 -0.011511962 -0.0034069172 0.00787806 -0.03712488
-0.029576853 -0.0022689155 0.0031548492 -0.014173061 0.02982237 -0.024037704 0.036785223 -0.03535989
0.010037909 0.03356915 -0.040620483 0.017325323 -0.032844134 0.030655961 0.020339113 0.011879405
0.033074103 -0.030727908 0.0025447607 -1.0977189e-05 -0.02526857 -0.026505645 0.02163659 0.037171245
-0.002052193 0.034605052 -0.01500163 -0.012906785 -0.011902377 0.019719258 0.016897123 -0.026868707
-0.015764799 -0.0058127344 0.008316552 0.014670745 -0.008215299 -0.038565464 0.026071455 -0.014377773
0.025846636 0.03012152 0.021414042 -0.0015368909 -0.013471584 0.033785656 0.0037102203 -0.035055067

encoder.2.0.convs.2.weight f4 [64]
00000000: 0000 803f 0000 803f 0000 803f 0000 803f
00000010: 0000 803f 0000 803f 0000 803f 0000 803f
00000020: 0000 803f 0000 803f 0000 803f 0000 803f
00000030: 0000 803f 0000 803f 0000 803f 0000 803f
00000040: 0000 803f 0000 803f 0000 803f 0000 803f
00000050: 0000 803f 0000 803f 0000 803f 0000 803f
00000060: 0000 803f 0000 803f 0000 803f 0000 803f
00000070: 0000 803f 0000 803f 0000 803f 0000 803f
00000080: 0000 803f 0000 803f 0000 803f 0000 803f
00000090: 0000 803f 0000 803f 0000 803f 0000 803f
000000a0: 0000 803f 0000 803f 0000 803f 0000 803f
000000b0: 0000 803f 0000 803f 0000 803f 0000 803f
000000c0: 0000 803f 0000 803f 0000 803f 0000 803f
000000d0: 0000 803f 0000 803f 0000 803f 0000 803f
000000e0: 0000 803f 0000 803f 0000 803f 0000 803f
000000f0: 0000 803f 0000 803f 0000 803f 0000 803f
1.0 1.0 1.0 1.0 1.0 1.0 1.0 1.0
1.0 1.0 1.0 1.0 1.0 1.0 1.0 1.0
1.0 1.0 1.0 1.0 1.0 1.0 1.0 1.0
1.0 1.0 1.0 1.0 1.0 1.0 1.0 1.0
1.0 1.0 1.0 1.0 1.0 1.0 1.0 1.0
1.0 1.0 1.0 1.0 1.0 1.0 1.0 1.0
1.0 1.0 1.0 1.0 1.0 1.0 1.0 1.0
1.0 1.0 1.0 1.0 1.0 1.0 1.0 1.0

encoder.2.0.convs.2.bias f4 [64]
00000000: 0000 0000 0000 0000 0000 0000 0000 0000
00000010: 0000 0000 0000 0000 0000 0000 0000 0000
00000020: 0000 0000 0000 0000 0000 0000 0000 0000
00000030: 0000 0000 0000 0000 0000 0000 0000 0000
00000040: 0000 0000 0000 0000 0000 0000 0000 0000
00000050: 0000 0000 0000 0000 0000 0000 0000 0000
00000060: 0000 0000 0000 0000 0000 0000 0000 0000
00000070: 0000 0000 0000 0000 0000 0000 0000 0000
00000080: 0000 0000 0000 0000 0000 0000 0000 0000
00000090: 0000 0000 0000 0000 0000 0000 0000 0000
000000a0: 0000 0000 0000 0000 0000 0000 0000 0000
000000b0: 0000 0000 0000 0000 0000 0000 0000 0000
000000c0: 0000 0000 0000 0000 0000 0000 0000 0000
000000d0: 0000 0000 0000 0000 0000 0000 0000 0000
000000e0: 0000 0000 0000 0000 0000 0000 0000 0000
000000f0: 0000 0000 0000 0000 0000 0000 0000 0000
0.0 0.0 0.0 0.0 0.0 0.0 0.0 0.0
0.0 0.0 0.0 0.0 0.0 0.0 0.0 0.0
0.0 0.0 0.0 0.0 0.0 0.0 0.0 0.0
0.0 0.0 0.0 0.0 0.0 0.0 0.0 0.0
0.0 0.0 0.0 0.0 0.0 0.0 0.0 0.0
0.0 0.0 0.0 0.0 0.0 0.0 0.0 0.0
0.0 0.0 0.0 0.0 0.0 0.0 0.0 0.0
0.0 0.0 0.0 0.0 0.0 0.0 0.0 0.0
