saved_models/nonlin_probe-CBF.ckpt (torch, 261256 bytes, 12 tensors)

conv1.weight f4 [32, 64, 3, 3]
000000 74 98 0f bd ae a5 ff 3a 12 5c f0 bc b2 8f 85 bc
       -0.0350575 0.0019504332 -0.029340778 -0.01630387
000010 60 cb af bc 1b 7b eb 3c 84 82 d7 3c dc da f9 bc
       -0.021459281 0.028745225 0.026307352 -0.030499868
000020 77 f8 95 3c fe e1 05 3d 85 90 4e 3c 8d ac 4b bc
       0.018306954 0.032686226 0.012607698 -0.012431276
000030 0f 39 09 bc 43 eb a0 bc eb 94 06 3c 5b e8 11 3d
       -0.00837542 -0.019643432 0.008214216 0.035621982
000040 ac 03 74 3c 02 76 04 3d 7e 55 0b 3b ae da 31 bc
       0.014893454 0.032339104 0.0021260674 -0.01085536
000050 95 55 cb 3c 1c a3 cf bc 8b 07 a3 bc da 5b 44 3c
       0.024821082 -0.025346331 -0.019901058 0.01198479
000060 99 e6 a9 bc 9a cd 5e bc 0e 69 4f 3b a7 66 9a 3b
       -0.02073984 -0.013598824 0.003164831 0.004711944
000070 21 d3 c1 ba 20 8b 13 bd c9 8c 07 bc d7 4c da bc
       -0.0014787653 -0.03602135 -0.008273312 -0.026647968
000080 91 52 7c bc ea c5 2b bd cc ad d7 3b b3 ca cd 3b
       -0.015400545 -0.041936792 0.0065819975 0.006280267
000090 f5 67 d9 bb ae 6f ee bc 67 13 cb bc 15 ed c9 3c
       -0.006634707 -0.029105987 -0.024789525 0.024649182
0000a0 f8 26 61 3c 16 54 f1 bc d5 8d b2 3b 57 43 bb 3b
       0.013742201 -0.02945904 0.0054490366 0.0057148146
0000b0 12 59 29 3d 96 f8 88 bb 55 3f 9d bc 35 ad 60 3c
       0.04134471 -0.0041800244 -0.019195238 0.013713171
0000c0 c9 cd 07 bd 7a f4 17 3d f7 56 3f bc 51 d8 81 bc
       -0.033155236 0.037098385 -0.011678449 -0.015850218
0000d0 fc 48 57 3c e5 48 da bc 55 bc 06 3c 5e d8 8b 3c
       0.013139959 -0.026646087 0.008223613 0.017070945
0000e0 0e 08 29 3d ee fe c9 bc ca 3a 44 3c 57 1b 13 3d
       0.041267447 -0.024657693 0.011976907 0.035914745
0000f0 b7 41 99 bc 03 a6 88 3c 30 58 e2 bc d7 e9 15 3c
       -0.018708093 0.016680723 -0.027629942 0.00914999
000100 ae 29 c9 bc 16 c2 fd bc 2b 01 21 bd f1 2e 27 3c
       -0.024556007 -0.030976336 -0.039307754 0.010204063
000110 82 a3 24 3c a5 ee 82 bc 37 bc 0c bd b9 95 af 3c
       0.010048749 -0.015982935 -0.034359183 0.021433698
000120 29 a0 03 3d 50 2a 90 bc 75 ae 70 3c f7 b2 5f bb
       0.032135163 -0.017598301 0.014690031 -0.003413377
000130 8a fe dd bc 64 d4 05 3c 64 20 40 bc 00 7f c5 3b
       -0.027098913 0.008168314 -0.0117264725 0.0060271025
000140 a5 29 d5 bc 84 2a b1 bc 5a 6d 96 3c f5 3a 89 3c
       -0.026020834 -0.021626718 0.01836269 0.016751746
000150 a4 b1 c0 bb bb 76 85 ba 14 fe ea bc 28 3d f5 bc
       -0.0058805514 -0.0010182479 -0.028685607 -0.029936388
000160 3d 5e 5f 3c e6 50 44 3c 1d 24 93 bb 41 40 bf 3c
       0.013633308 0.011982178 -0.004490389 0.023346068
000170 80 b3 1b bc 61 2e 8f bc 7e c4 e3 bc 1e 95 15 3c
       -0.009503245 -0.01747817 -0.027803656 0.009129791
000180 df 7d c6 3c 6e c5 67 3c a8 0b 20 bd 70 fe 8b bc
       0.024229942 0.014146192 -0.039073616 -0.017089099
000190 26 8c 1a bb f1 ee 28 bd 71 bc 0a 3d a1 4a 14 bd
       -0.002358207 -0.041243497 0.033871118 -0.036203984
0001a0 e7 2e a8 ba ee 2e e8 3c 80 34 03 bd 6f 3e 32 3d
       -0.0012831361 0.02834269 -0.03203249 0.043516573
0001b0 51 6e a0 bb 92 38 13 3d f5 3e c9 bc 4b 2b f4 3c
       -0.0048959632 0.03594262 -0.024566153 0.0298058
0001c0 09 61 31 3d 62 2c 9e 3c c6 fc 1d bd 0c 6c dc bc
       0.04330543 0.019308273 -0.03857114 -0.02690699
0001d0 3d 3f 18 3c 26 15 46 3c f5 d7 53 3c f5 cf 14 3d
       0.009292421 0.012090003 0.012929906 0.036331136
0001e0 76 64 0b 3d 80 22 14 3d 40 ef 18 3d 4e 74 21 3d
       0.034031354 0.036165714 0.03733754 0.039417557
0001f0 7c 9f 0f bd 61 33 03 bc 5c af bc bc d7 b0 a2 bc
       -0.035064206 -0.008007855 -0.023032837 -0.019859714
000200 2d 92 7c 3b f8 0f 0c 3d f8 e4 1a bd af 3d 12 3d
       0.0038539276 0.034194916 -0.037816018 0.035703357
000210 2e b9 f4 3b 5b d3 64 3b 08 e0 0d 3d d1 05 26 3d
       0.007468364 0.0034916017 0.03463748 0.04053289
000220 23 80 be 3c f3 36 2e bc e7 06 1a 3d 4f 4b 30 bc
       0.02325446 -0.010633218 0.03760424 -0.0107601425
000230 c0 48 e8 bc 29 39 fd 3a 2d fb 9e bb 71 8f 7d bb
       -0.028355002 0.0019319403 -0.00485172 -0.0038690234
000240 dd 65 70 3c 7f 8f 90 3c 85 6a d5 bc 90 d0 c3 bc
       0.014672724 0.01764655 -0.026051769 -0.023903161
000250 4a 20 9c bb 58 ce 30 bd 8b df 74 bc 92 55 19 3c
       -0.0047645913 -0.043165535 -0.014945875 0.00935878
000260 6f d4 36 bc 63 88 4b 3c 47 35 e2 3b e7 ac 67 bb
       -0.011159047 0.012422654 0.006903324 -0.003535086
000270 7d f4 89 3a 76 13 dd bc 80 36 1c bd 76 0a 0b 3c
       0.0010525134 -0.026986819 -0.038137913 0.008486381
000280 4d 7e 81 3b af d5 49 bc bd d0 16 bc 65 76 0e 3c
       0.003951824 -0.012319013 -0.0092050405 0.00869522
000290 33 7b f1 3c d6 e4 0b bd d2 90 e7 bc e6 16 59 bc
       0.029477691 -0.03415378 -0.028267298 -0.013250088
0002a0 16 1d 7f bc 75 30 c3 bc 79 e3 36 3b cb ba 18 3c
       -0.0155708995 -0.023826817 0.002790658 0.009321879
0002b0 2e f3 08 bd 08 0b c5 bb de f2 09 3d 67 36 0c 3d
       -0.03343504 -0.006013278 0.03367888 0.03423157
0002c0 66 f4 44 3c 26 6a 91 bc 5e 37 49 bd b2 26 54 3c
       0.01202116 -0.01775081 -0.049125068 0.012948679
0002d0 d8 1d 0f bd 32 c2 5c 3c 25 90 09 bd 2b f8 0c 3d
       -0.03494057 0.013474034 -0.033584733 0.03441636
0002e0 dd 57 a1 bc ff cb 9b 3b c0 1a 0c bd c0 94 d4 3c
       -0.019695217 0.004754543 -0.0342052 0.025949836
0002f0 4a e7 bf 3a 7d 4b b2 bc 6b 43 13 3d e8 3d e2 3c
       0.0014641073 -0.021764511 0.035952967 0.02761741
000300 bb 2d 9d bc 60 37 61 3c cc 0f e3 3b 9a da a8 3c
       -0.019186845 0.013746113 0.0069293734 0.02061205
000310 60 21 55 bc d1 45 16 bd b1 32 e0 3c 1d 07 e4 3b
       -0.0130084455 -0.036687676 0.027367922 0.006958856
000320 19 74 31 3c b6 44 b0 3c 81 d4 f3 bc 98 48 a7 3c
       0.0108309025 0.021517139 -0.029764416 0.020420358
000330 4c 75 17 bd b2 cd d6 bc ae 56 92 bc c2 d9 6b 3b
       -0.036977097 -0.02622113 -0.017863598 0.0035987948
000340 82 d9 8d bb 6a 49 ee 3b 11 3f 2e bc bb d6 03 3c
       -0.0043289075 0.007271935 -0.010635153 0.008046801
000350 85 9c ff 3c a4 e3 38 3d 2c 19 dd bb 8f 6f 86 3c
       0.031202564 0.04513897 -0.0067473855 0.016410617
000360 c0 dd 05 3d 43 47 59 3c 64 92 00 bd 44 89 de 3c
       0.03268218 0.013261619 -0.03138961 0.027165063
000370 73 39 e9 bc 6f 4e 02 bc 17 b7 b8 bc 8a 20 b9 3b
       -0.028469777 -0.00795327 -0.022548242 0.005649631
000380 e4 2a 39 bc d9 2a 9b 3b f1 01 e9 3b ef 4e ae 39
       -0.01130173 0.0047353324 0.007110827 0.00033246676
000390 8d ea 4b 3c 96 7f 6f 3c 1c b9 14 bd a5 40 c9 3b
       0.012446058 0.014617821 -0.036309347 0.0061417394
0003a0 ac 28 9c 3c 35 46 6c bb f3 8f 9d bc 14 36 5d bc
       0.019062363 -0.003605259 -0.01923368 -0.013501663
0003b0 e7 3b c2 3c 39 25 1d bc ca 85 ea 3c c1 16 2a bb
       0.023710204 -0.009591394 0.028628249 -0.0025953504
0003c0 41 4d f3 bc 15 25 e1 bc b0 c6 e6 bc 57 44 0b 3d
       -0.029699923 -0.027483502 -0.028170913 0.03400072
0003d0 18 85 d5 3c ca e7 80 bc d2 58 22 bd 57 a6 b4 3c
       0.02606444 -0.015735526 -0.039635487 0.022051973
0003e0 fa 45 d9 bc f6 d6 fc bc 11 ae de bc 27 5a 96 3c
       -0.026522625 -0.03086422 -0.02718261 0.018353535
0003f0 16 d1 0b bd 05 c1 72 bc d1 f4 35 bc 86 47 8e bc
       -0.034134947 -0.014816527 -0.011105732 -0.01736809

conv1.bias f4 [32]
000000 68 b9 d2 bc 2b d6 10 3d 4e 2a fd 3b f5 b4 ac 3c
       -0.025723174 0.035360496 0.0077259904 0.02108238
000010 74 ef 5a bc 3b 9e 0a 3c 9f c9 1d bc f9 ac fc 3c
       -0.013362754 0.008460577 -0.00963059 0.030844199
000020 a7 0c 03 3d fe cd 94 bc 0e 54 91 bc a8 0c 1e 3d
       0.031994488 -0.018164631 -0.017740276 0.03858629
000030 5b aa 6a bc 45 97 6b 3c a2 c7 0e 3b dc 22 94 3c
       -0.0143228425 0.014379327 0.002178647 0.018083028
000040 59 a6 0c 3c 85 63 b2 3b 37 78 f2 3b 14 8c 8b bb
       0.008584582 0.0054439926 0.0073995846 -0.004258642
000050 95 d3 c9 bc 86 de 87 3a 7b c0 b5 3c ca cb ae bb
       -0.024637023 0.0010366 0.022186508 -0.005334352
000060 0f 39 8b 3c 1e 04 e5 3c 5f 8e c0 3a 10 42 98 bc
       0.016994981 0.027956065 0.0014690867 -0.018586189
000070 37 12 0c bd 18 0f 5b bc ca 47 fa bc 70 47 c9 bc
       -0.03419706 -0.013370298 -0.03055181 -0.024570197

conv2.weight f4 [64, 32, 3, 3]
000000 d7 fd 4a 3c 7e 7f 86 3c 00 42 59 bd 25 7e 24 bd
       0.012389622 0.016418215 -0.053041458 -0.040159363
000010 bc 95 00 bd a2 a4 18 bd 41 76 58 bd 2a f2 fe 3c
       -0.031392798 -0.03726638 -0.05284715 0.031121332
000020 e2 8f 63 3d f1 48 36 3d 40 f5 f6 bc ea e1 c1 3c
       0.05555714 0.044503156 -0.030146241 0.023667295
000030 55 87 c4 bc b6 cc 66 bd 90 ad b7 3b 72 60 f5 bc
       -0.023990313 -0.05634757 0.005605407 -0.029953215
000040 f3 97 11 bd 64 30 c3 3c 45 6b 16 bd 55 eb 6a bc
       -0.0355453 0.023826785 -0.036723394 -0.014338334
000050 8a 86 17 3d 31 44 a7 bb c5 4f c4 bc 71 a2 aa 3b
       0.03699354 -0.0051045646 -0.023963818 0.005207353
000060 41 cb 04 bd d0 1a c1 bc ba 07 54 3d d3 bd 28 3d
       -0.0324204 -0.023572356 0.05176518 0.041196655
000070 74 f1 6c bd db 03 2a bc fd 97 93 3c 56 87 c9 bc
       -0.057847455 -0.010376896 0.01801681 -0.024600666
000080 50 4c 0b bc 28 3e 40 bb d2 56 76 bc 7f 59 1b bc
       -0.008502081 -0.0029333923 -0.015035348 -0.009481787
000090 9d 91 5d bd 7c 9d 1e 3d 11 33 50 bd a7 d2 5f 3c
       -0.054093946 0.038724408 -0.05082995 0.013661063
0000a0 2f d7 8c 3d 6d 64 16 bc b8 83 40 3d 83 ab c6 bb
       0.068769805 -0.009179217 0.047000617 -0.0060629263
0000b0 2f 6f 28 bc e8 4c 26 bd 70 c9 4d 3d e4 6a a8 3c
       -0.0102804145 -0.040600687 0.050240934 0.020558782
0000c0 df c3 3d bc 5a ff 8f 3c 97 77 f1 3c 36 7f 62 3c
       -0.011582344 0.017577816 0.02947597 0.013824275
0000d0 62 d4 12 bd 10 92 8d bc 4e c5 25 bd 12 8e be 3c
       -0.035847075 -0.017281562 -0.040471368 0.023261104
0000e0 51 4e 60 bd a5 e8 c6 bc 20 53 80 bd 7d a6 82 3c
       -0.05476219 -0.024280855 -0.06265855 0.015948528
0000f0 65 7d 53 3d 02 5c ad 3c 65 d5 67 3d 6c b3 0a 3d
       0.051633257 0.021162037 0.056599993 0.033862516
000100 21 fc 36 3d bc 82 19 bd 57 85 19 3d 8f 9b 84 bd
       0.044674043 -0.037478194 0.03748068 -0.06474983
000110 d1 94 1b bd 70 f1 c7 bc f9 64 99 3c c0 d0 2e 3d
       -0.03798372 -0.024407119 0.018724905 0.04267955
000120 00 d5 1c bd bf 90 3c bc 03 7e 41 3d 69 a5 df 3b
       -0.03828907 -0.0115091195 0.047239315 0.0068251383
000130 be 46 33 3d c4 a3 3b bc d3 98 52 3d 02 e8 b7 3c
       0.043768637 -0.011452619 0.051415276 0.022449497
000140 39 7c c6 bc a8 36 0b bd 02 69 43 3d 79 3a 45 3b
       -0.024229156 -0.03398767 0.047707565 0.0030094667
000150 75 3a a0 3c 61 35 85 bc 79 c1 98 bc 26 30 09 bd
       0.019559124 -0.016260805 -0.018646942 -0.033493184
000160 67 9a 52 bd 74 b9 9c bc e4 b8 28 bc a2 0c 91 bb
       -0.05141678 -0.0191314 -0.010297988 -0.004426555
000170 63 64 59 3d 90 95 1b bd 52 0b 67 bc 58 eb 04 bd
       0.05307425 -0.03798443 -0.01410182 -0.032451004
000180 ed 23 85 3c 54 07 e4 bc d6 c0 31 3d 8a a1 3a bd
       0.016252482 -0.027835526 0.043396793 -0.045564212
000190 7d 25 4f 3d 5e fd f3 3c 8f 6e 14 3c ec 74 25 bd
       0.05057286 0.0297839 0.009059562 -0.04039471
0001a0 18 54 09 3d 46 50 82 3c a0 ea 05 3d 81 aa 5a 3d
       0.033527464 0.015907418 0.03269446 0.05338526
0001b0 c0 65 1a bd 6e 91 c8 bc b8 9a cd 3b 24 65 07 3d
       -0.037694693 -0.024483409 0.0062745474 0.03305544
0001c0 92 d0 02 bc 32 14 2b 3d 68 34 46 3c 09 0c 30 3d
       -0.007984297 0.041767307 0.012097456 0.042980228
0001d0 fc 32 79 3d f7 bf 1f bc f4 f7 3f 3d 04 60 44 3d
       0.060839638 -0.009750358 0.046867326 0.04794313
0001e0 ce b5 82 3a 96 e8 3e bd 38 14 0a bd 54 7a cd bc
       0.0009972395 -0.04660853 -0.03371069 -0.025082745
0001f0 06 14 23 bc 3e 93 3b 3d 67 d2 18 bd 55 92 07 bd
       -0.009953504 0.045794718 -0.03731003 -0.033098537
000200 29 3d f4 3c 78 94 92 bc cc 12 3d bd ea d9 73 3c
       0.02981432 -0.017893061 -0.046160504 0.014883498
000210 e0 2c 0b bd f1 58 3f bb 0d ee 7f bb 9c 54 39 3c
       -0.033978343 -0.00291973 -0.0039051801 0.011311676
000220 4e 3a 24 3d 3f e4 73 bd 4a ed 3a 3d d6 15 47 bd
       0.040094666 -0.059543844 0.045636453 -0.04860481
000230 33 a5 d3 bc cb 6c 44 bd 6f 62 d0 bc b1 8b f2 3c
       -0.025835609 -0.047955316 -0.025437562 0.029607626
000240 fc 83 b6 bb 5b 78 3f bd 11 0a 0e bc 92 a8 0d 3d
       -0.005569933 -0.04674564 -0.008669392 0.03458459
000250 fd 4a 04 3d 9d 6b a1 bc 6e e9 85 bd 5d 4f 0a 3d
       0.032298077 -0.019704634 -0.06538664 0.033767093
000260 ec 52 fc bc f5 81 c3 3a 70 f8 be bb 18 b9 e4 3c
       -0.030801259 0.001491605 -0.005827956 0.02792029
000270 02 d8 8f 3d 06 8c 7b bc a9 8d 6c bd 64 76 c2 bb
       0.07023622 -0.015353208 -0.057752285 -0.0059345234
000280 c0 2f ba 3c 5e 81 b0 bc 47 1d c4 3c 3c 7f 7e bd
       0.022727847 -0.021546062 0.023939742 -0.06213306
000290 4e dc 06 bd d1 1f 11 3d 6b 1d 2d 3d b1 36 30 bd
       -0.032924943 0.035430733 0.042264383 -0.043020908
0002a0 2b 6a c0 3a 20 13 2c bc 91 e2 c4 bc 20 7d c7 bc
       0.0014680078 -0.010502607 -0.024033817 -0.024351656
0002b0 dd b9 68 3d 72 d9 ad bc 26 be 1d bd 13 da 88 3d
       0.056817878 -0.02122185 -0.038511418 0.06682219
0002c0 45 b9 0b 3c 53 6c 64 3c 27 bd 2f 3d 29 4f 81 3d
       0.008528058 0.013941842 0.042905 0.06313927
0002d0 04 61 70 3c 83 c9 38 bb 48 68 3d 3d 9b 22 60 3d
       0.014671568 -0.0028196282 0.04624203 0.054720502
0002e0 24 96 56 bb 4a ec 22 3d 48 1d 87 3c b1 5b 03 bd
       -0.00327433 0.039776124 0.016493455 -0.032069866
0002f0 3f a8 3d bd 51 0b 76 3c c9 e7 12 3d 07 ef 32 bd
       -0.04630303 0.0150173465 0.03586558 -0.043684985
000300 8f 6e a8 3c a4 0c 53 bd 66 f5 f7 3c c9 5a 25 3d
       0.020560531 -0.051525727 0.030268382 0.040369783
000310 08 57 b2 bc 83 15 42 bb 1f f6 a4 3c 56 17 86 3c
       -0.021770015 -0.0029614873 0.020136891 0.01636855
000320 c1 66 bc bc 2e 87 38 3d ff 45 8b bc ee bc 49 3b
       -0.022998216 0.045050792 -0.01700115 0.0030782777
000330 88 c7 fc 3c 19 73 95 3d f4 12 44 3b 0c 0d 95 3d
       0.030856863 0.07297344 0.0029918524 0.07277879
000340 25 37 04 bd ae 29 31 3d cd 3e 8a bb 7c 25 7f bd
       -0.032279152 0.04325264 -0.004218912 -0.062291607
000350 74 52 5c bd 20 59 12 bd 30 96 23 3d 70 c2 09 bd
       -0.05378957 -0.035729527 0.03993815 -0.033632696
000360 ed d6 22 bc 9a 96 67 bb c0 7f c9 3b f9 8c 9a bc
       -0.009938938 -0.0035337568 0.006149262 -0.01886605
000370 c0 62 50 bd 5f 25 48 3d fc f5 da 3c b4 7e 26 3a
       -0.050875425 0.048863765 0.026728623 0.00063512777
000380 e1 9e 31 3d d2 62 f7 3c b6 8a 6b bc 29 24 dc 3c
       0.04336441 0.030198488 -0.014376333 0.026872711
000390 80 a9 09 3d 27 26 79 3b 67 eb 79 3d 9e f8 2b bd
       0.033608913 0.0038017125 0.061015513 -0.041985147
0003a0 27 8a 60 bd ce 56 90 3d 14 3f 12 bc de 0f 41 3c
       -0.054819252 0.07047807 -0.008926172 0.011783568
0003b0 5c 85 67 3a de ba 42 3d 77 a1 0f bd dc b5 a6 3a
       0.0008831823 0.04754149 -0.035066094 0.0012718993
0003c0 d2 04 34 bd 35 72 78 3d 2d 48 25 bc e3 96 11 3d
       -0.04394991 0.06065579 -0.010088009 0.035544287
0003d0 c5 30 32 bd fe 93 45 bd 56 31 58 3c fb 26 06 bd
       -0.04350354 -0.04823684 0.013195356 -0.03275202
0003e0 b7 08 26 3d 2f bb 84 3c 41 44 ad 3b 68 33 e3 3b
       0.040535655 0.016202537 0.0052876775 0.0069336183
0003f0 8d 45 8c 3c 34 cd 41 3c 93 e1 35 3d f8 db 1b bd
       0.017123008 0.011828709 0.044404577 -0.038051575

conv2.bias f4 [64]
000000 82 79 63 bd 77 c4 86 bc 3c 6e 4b bd bc d1 08 bd
       -0.0555358 -0.016451104 -0.049665675 -0.033403143
000010 1b b9 94 3c 58 07 30 3b 0b 5e 5a 3d d7 9a 05 bd
       0.018154671 0.0026859846 0.053312343 -0.03261837
000020 7e 93 b6 bc fe fd 38 bd e2 9f cf bc c6 65 c2 3c
       -0.022287127 -0.0451641 -0.025344793 0.02373017
000030 cc 18 58 bd c6 ee 64 3d 97 e0 78 3b 57 68 58 bd
       -0.052758023 0.055891775 0.0037975663 -0.05283388
000040 9a 3d 26 3d 06 81 01 bd cc 53 0b 3c e0 26 bf 3c
       0.04058609 -0.031617187 0.008503865 0.023333967
000050 f1 bd dc bc ed 5c 23 3d c6 cc f4 3b 6f 8a 29 bc
       -0.02694604 0.039883543 0.0074707 -0.010347947
000060 65 7d 38 3d 3c e2 53 3d ac 3d 1b 39 60 65 23 bd
       0.04504146 0.051729426 0.00014804926 -0.0398916
000070 c0 23 a6 3c 6a 8a 49 3d 3e 7b 40 bd 64 8a d2 bc
       0.020280719 0.049204268 -0.046992533 -0.025700755
000080 48 20 b8 bc 94 8b 02 bb 1b ca 3e 3d ca 97 7e bc
       -0.02247633 -0.001991962 0.04657946 -0.015539119
000090 59 0b 89 3c 49 f5 fb bc 9f 7d 82 3c 6d 93 50 3d
       0.016729044 -0.03075661 0.015929041 0.050921846
0000a0 43 b6 b6 3c a9 0f f5 3c 8c e0 db 3c 7b 1d 8f 3c
       0.022303706 0.029914694 0.02684047 0.017470112
0000b0 f6 d1 9e bc 40 18 09 3c 83 d4 d3 3b 0c 24 22 3d
       -0.019387227 0.008367598 0.0064645424 0.03958516
0000c0 46 9a 29 3c f8 18 cd 3c ba 79 07 3d 92 f7 26 bd
       0.010351723 0.02503632 0.033075072 -0.040763445
0000d0 64 3e 32 3d 72 4b 5b 3d 32 f9 71 bd 39 cf 15 bc
       0.04351653 0.053538747 -0.05907554 -0.009143644
0000e0 f8 83 89 bc 93 56 52 3d 06 5a f3 bb 09 5b ea 3c
       -0.01678656 0.051352095 -0.007426503 0.028607862
0000f0 c5 97 a8 bc 1d 3f 6d 3c 70 b4 1c 3d d2 32 8a bc
       -0.020580182 0.014480379 0.038258016 -0.016869936

fc1.weight f4 [200, 128]
000000 c4 84 ec 3c b2 64 8a 3d 7f 6d b8 3d df dc 74 3d
       0.028871901 0.06757487 0.0900526 0.05978095
000010 58 63 f1 3c 00 20 90 bc 80 45 70 3d 62 40 4a bd
       0.029466316 -0.017593384 0.05866003 -0.049377806
000020 1b 9a a1 3b 0f 97 b2 bc 1d a5 a0 3d b5 99 70 3d
       0.004931701 -0.021800546 0.07843993 0.058740336
000030 8b 8c ab 3d ce 94 5e 3d 8a 7e 56 bb 4a ea a3 3d
       0.08376416 0.05434113 -0.0032729232 0.080036715
000040 5b a8 76 3d a9 37 21 3d f0 e9 74 bd 75 e5 7f bd
       0.06021915 0.039359722 -0.059793413 -0.062474687
000050 a7 57 b3 bd fa bc 1e bd 1b 72 9e 3c 93 34 02 3d
       -0.08756953 -0.03875444 0.01934152 0.03178842
000060 c8 b2 fe bb 7a 45 27 bd cd 16 b5 3d 07 dd 07 bd
       -0.007772777 -0.040837742 0.088422395 -0.033169772
000070 19 62 68 3d f0 3a 16 3d b6 0c af 3d b0 20 9b 3d
       0.05673418 0.0366773 0.08547346 0.07574594
000080 84 3e 82 bd 29 67 1c 3a f8 8b 4d 3d d0 c7 6b bc
       -0.0635958 0.00059663 0.050182313 -0.014390901
000090 4a b1 5f 3d 3d 14 e8 3c 6b f2 a9 3d 33 58 4a bd
       0.054612435 0.028329963 0.08298191 -0.04940052
0000a0 12 3e 3b 3d 42 a6 56 3d 6d 2b 56 3b ca e9 dd 3d
       0.04571349 0.05240465 0.0032679692 0.10835607
0000b0 2b ff 8e bc c7 47 dc 3b 99 27 ad bd 44 82 ac bc
       -0.017455658 0.0067224237 -0.08454818 -0.02105821
0000c0 e5 2d e8 bb 62 08 8f 3c 9b 2f 60 3d 7e 00 11 3d
       -0.007085549 0.017460052 0.0547329 0.03540086
0000d0 9f 91 2e bc 2a b2 0c 3d d7 31 0a bd 2f 47 39 bd
       -0.010654836 0.034349598 -0.033738937 -0.0452339
0000e0 e8 b9 65 3d f4 b1 55 3d d4 07 2d 3d 36 07 58 bd
       0.056085497 0.052171662 0.042243794 -0.052741252
0000f0 8d cf 6e 3d c2 6c ee 3c 2c 6e d0 3b 5f d9 bc bc
       0.058303405 0.029104594 0.0063607898 -0.02305287
000100 e7 7a 39 bd b0 81 16 3d 6e 10 d4 3b de d5 bb 3c
       -0.045283224 0.036744773 0.006471685 0.022929128
000110 df e1 26 3d 3a 55 13 3c 18 11 e0 3b 96 50 3a bd
       0.04074275 0.008992488 0.0068379752 -0.04548701
000120 7f b2 6a bd a5 2c e2 bc 8a f9 d4 bc 12 50 3d 3d
       -0.057299133 -0.027609179 -0.025997896 0.04621894
000130 43 79 9c bd a0 1d 00 3d af 92 fd bc a4 8c 87 3d
       -0.07640316 0.031278253 -0.030953733 0.06618622
000140 4d 50 97 bd 6e d6 50 bd 35 8b 03 bd 46 99 36 3d
       -0.07388363 -0.050985746 -0.03211518 0.044579767
000150 b8 38 01 bd cb 41 3d 3c 61 8d 51 3d b6 47 37 bc
       -0.03154823 0.011551331 0.05116022 -0.011186531
000160 10 7e 9c 3d f2 f1 c8 bc f9 da b1 bc 5a 81 f3 3c
       0.07641232 -0.024529431 -0.02171086 0.029724766
000170 02 1d 59 bd c0 34 8d 3d d9 dc ef 3c e2 70 17 bd
       -0.05300618 0.06894827 0.029280113 -0.036972888
000180 c0 c3 2c bd e4 a6 8e 3c 23 a8 85 bd 40 cc 8e bb
       -0.04217887 0.017413564 -0.0652621 -0.0043578446
000190 18 fe 61 bd b8 5c 09 bd 4d a6 12 bd de ad 95 bd
       -0.055173963 -0.03353569 -0.035803128 -0.07308553
0001a0 5d 0f 66 3d 1e 12 aa bc 35 ea de bb 4a 72 a8 3d
       0.056166995 -0.020760592 -0.006802822 0.08224924
0001b0 b6 d9 3b 3d e7 af af 3c 6c 17 8b 3d 31 c1 30 3c
       0.045861922 0.021446181 0.06791577 0.010788248
0001c0 e3 ed 1f bd e7 31 3d bd d2 b3 35 3d 67 87 dc 3c
       -0.039045226 -0.04619017 0.044360943 0.026920034
0001d0 11 8e 7d bd 74 0a 0a bd 3d b5 20 bd d1 90 3e bd
       -0.061903063 -0.033701375 -0.039235342 -0.046524826
0001e0 46 68 66 bd 13 0b 77 3d ff 92 f0 bc d9 c0 3b 3c
       -0.056251787 0.060313296 -0.029366968 0.011459553
0001f0 0a 6d f3 bc fa 15 5b bd 2f 0c 28 3d 39 a5 c0 3d
       -0.02971508 -0.053487755 0.041027244 0.09406514
000200 b6 51 fb 3c ee 2f 15 bd 4b aa e0 bc 7e a6 ba bc
       0.030678611 -0.036422662 -0.027424952 -0.022784468
000210 7c 7b b0 3c ac c4 e6 bc 7e ae 3b 3c 1f 5e bb bc
       0.021543257 -0.028169952 0.011455176 -0.022872029
000220 a6 ea 95 bd cf d4 49 3d 37 40 2a 3d 25 9d bd bd
       -0.07320146 0.049275216 0.041565146 -0.092584886
000230 ef 00 21 3d 9b b0 30 bc ae 02 a7 bc ff 37 61 bd
       0.03930753 -0.0107842935 -0.02038702 -0.054985043
000240 bc a9 96 bd e3 c7 a5 3d ed 0b cb bb 87 98 85 bc
       -0.07356593 0.08094766 -0.00619649 -0.016308082
000250 11 29 a4 3d 71 f9 74 3d 82 fa 86 bd 8b d2 0d 3b
       0.08015645 0.0598082 -0.06590749 0.0021640386
000260 00 9a be bb f4 e5 5b bd 2a b0 15 3c 78 52 af bb
       -0.005816698 -0.053686097 0.009136239 -0.005350407
000270 b4 3b ac bc 59 db 93 3d 53 21 06 3c 09 a1 af 3a
       -0.021024562 0.072195716 0.008186656 0.0013399433
000280 af 3f 4a bd 04 5f bf bd a2 ed 72 3d 9c bf b5 bd
       -0.04937714 -0.09344295 0.059308656 -0.08874437
000290 64 ae d2 3b 6e 24 9e bd 91 9b a5 3d d5 c5 99 3d
       0.0064294804 -0.07721792 0.080863126 0.075084366
0002a0 49 74 40 bd be c3 09 bd 16 35 7a bd 4b 57 2b 3c
       -0.0469859 -0.03363394 -0.061085783 0.010457824
0002b0 fd 5b b1 3d a6 05 32 3d 3d b4 bf bd 40 43 5f 3d
       0.086601235 0.043462418 -0.093605496 0.054507494
0002c0 aa 07 4b 3c b6 31 82 3d d7 bd 95 bc 9b ea 96 3d
       0.012391964 0.06357138 -0.018279 0.07368966
0002d0 08 14 17 bc 19 62 b4 3c 9a f4 1e 3d 46 ae ac bb
       -0.009221084 0.022019433 0.03880749 -0.0052697985
0002e0 ca c3 0d bd e8 89 d6 bc f8 eb b5 3c 52 a3 a0 bd
       -0.034610547 -0.026188806 0.022207245 -0.07843651
0002f0 50 9a 18 bd ea 41 69 3d c7 8c 9c bd 0e bf 07 bc
       -0.03725654 0.056947626 -0.07644039 -0.008285297
000300 e0 50 70 bd d8 9d 21 3d d0 0b 0c bd 9b db 87 bd
       -0.05867088 0.039457172 -0.034190953 -0.06633683
000310 fe 3a a1 bc 53 97 b9 bd 51 42 85 bd 42 ab bf bd
       -0.01968145 -0.09062066 -0.065067895 -0.09358837
000320 b2 c6 42 3d f1 a0 bc bb da 6e 70 bd 31 53 e0 bc
       0.047552772 -0.0057564904 -0.058699466 -0.027383419
000330 67 9f df bc fc 2f 31 bd a3 b7 a8 3c ee 70 cf bc
       -0.027297689 -0.043258652 0.020595377 -0.025322404
000340 69 41 4e 3b 1d f7 28 3d fe f4 03 bd 83 f6 25 bd
       0.0031472093 0.04125129 -0.032216065 -0.040518295
000350 c9 48 ef bc d8 9e 8b bc 4f eb 6a 3d 86 18 3a bd
       -0.029209511 -0.017043516 0.057353314 -0.045433544
000360 a8 55 3e bd 85 72 a7 3c b7 7e 9a 3d c0 7c a6 3c
       -0.046468407 0.02044035 0.075437 0.020323157
000370 b1 ba 30 3d 1a 0d 44 bd 84 e9 fc 3c 31 ab 04 bd
       0.043146793 -0.047864057 0.030873068 -0.032389823
000380 32 fa ab bd cd 59 b1 3c 06 f9 9b bd 0b 70 16 bd
       -0.0839733 0.021649266 -0.07615857 -0.036727946
000390 86 66 03 3b 1c 34 38 3d 54 3b 91 3d 0f 19 9c 3d
       0.0020050122 0.04497157 0.07091394 0.07621967
0003a0 97 a3 51 3d 37 80 01 3d d1 e3 9e 3d 16 6f f9 ba
       0.051181402 0.031616416 0.07758296 -0.0019030299
0003b0 b3 82 99 3d ba e7 2b 3d f4 33 9c bd 4e 6f 1d 3d
       0.07495632 0.04196904 -0.07627097 0.038436227
0003c0 6a 94 81 3d 4a 89 4c bd 12 e0 e6 3c 64 8f 7b 3d
       0.06327136 -0.049935617 0.028183017 0.061416045
0003d0 da 8d 61 bd c3 ca a9 bd 33 4d be bc 58 44 86 3d
       -0.05506692 -0.08290627 -0.02323017 0.06556004
0003e0 63 ff 9e bc e4 6e 03 3d e4 97 9d bd 92 a9 89 3d
       -0.019408887 0.032088175 -0.076949865 0.06721796
0003f0 6d a7 07 3b 6e a8 8d 3d cb bb 02 3d df 26 1d 3d
       0.0020699159 0.06916891 0.031917375 0.03836715

fc1.bias f4 [200]
000000 3a d3 a8 3d 9b 5c 6a bd 67 63 3a 3d 17 99 60 3d
       0.08243413 -0.05721722 0.045504954 0.054833498
000010 cf a3 ac 3a df 7f 31 3d 3b d1 2e bd 78 6b 04 3d
       0.0013171377 0.043334838 -0.042680006 0.032329053
000020 1f e4 ac bd 24 96 9f bc 5d 2b 1a 3d 13 4a 0d bd
       -0.08441948 -0.019480772 0.03763901 -0.03449447
000030 82 43 95 bd f2 d5 a7 bd 20 46 a4 3d 5b 42 40 3d
       -0.07288267 -0.08195104 0.08021188 0.04693828
000040 00 8f 17 bd ec 2e 9c bc d6 e4 60 3b 61 c6 79 3d
       -0.03700161 -0.019065343 0.0034316084 0.060980204
000050 cf 06 30 3d 95 7a af ba 5f 7f 04 3d d4 1a 15 bc
       0.042975243 -0.0013387973 0.032348033 -0.009100635
000060 aa d9 e3 3c 5e 9d bb bc 72 47 34 3d fe 23 d3 3d
       0.027813751 -0.022902187 0.044013448 0.10309599
000070 13 b0 27 3d f7 26 b0 bb ad f8 4a 3d 53 8f 0c bd
       0.0409394 -0.0053757387 0.049553562 -0.034316372
000080 0d 03 73 3c 42 21 71 3d 65 ad aa 3d 6e 44 2b 3d
       0.01483227 0.058869608 0.08333854 0.041813307
000090 72 b1 52 bc fa 15 eb 3c 33 45 88 bb 65 33 87 bd
       -0.012859689 0.028697003 -0.00415864 -0.066015996
0000a0 58 a9 98 3d 90 c8 40 bd 72 27 4d ba fa c4 b5 3c
       0.07454175 -0.04706627 -0.0007826007 0.022188652
0000b0 f3 09 38 3d 60 fd 6f bd 9e 50 ea 3c e3 51 fb bc
       0.044931363 -0.058591247 0.028602894 -0.030678695
0000c0 b8 58 33 3d 70 aa 4d 3c 6f 6d 83 3d 09 aa e1 bc
       0.04378578 0.0125528425 0.06417357 -0.0275469
0000d0 2e 06 96 3d 34 09 a3 bd 89 a3 21 3d 67 69 81 3d
       0.073253974 -0.0796074 0.0394626 0.06318932
0000e0 e0 b6 4d 3d 6d 13 8e 3d e0 2d 3e 3d 23 ce f9 3c
       0.05022323 0.06937299 0.04643047 0.030493801
0000f0 32 d3 60 3d 33 76 89 3d f7 f1 96 bd 59 cc 83 bd
       0.05488891 0.06711998 -0.0737037 -0.064354606
000100 f6 96 b6 bc db b4 cc bc 87 a7 63 3d bc 58 a6 3d
       -0.02228878 -0.024988582 0.05557969 0.081223935
000110 34 3e a9 bd c8 4b 91 3d 26 ff 91 3d 32 3f 54 3d
       -0.082638174 0.07094532 0.07128744 0.05181808
000120 e8 b5 7d 3d b4 15 1a 3d 91 f1 ac bc 52 e7 ff 3c
       0.061941057 0.037618354 -0.021111282 0.031238232
000130 cd 9f 94 bd d9 84 b0 3d 26 b6 03 bd 0e c1 4a bd
       -0.07257042 0.08619089 -0.032156132 -0.049500518
000140 a2 47 5c 3b e2 43 50 bd 0f 4e 2a 3c c7 22 55 bd
       0.0033612032 -0.050845988 0.010394587 -0.05203512
000150 49 26 7e bd a8 3f 90 3d 13 80 8c 3b df 67 84 38
       -0.06204823 0.070433915 0.0042877286 6.313598e-05
000160 d5 50 09 bd e3 0f f0 bb 1f 52 a0 3d cd 36 95 3c
       -0.033524353 -0.0073261126 0.07828163 0.018214608
000170 04 8e db 3c 4b a4 50 3b a1 ad 88 bd 28 d8 31 bd
       0.026801117 0.0031836207 -0.06673742 -0.043419033
000180 67 7d 96 bd 0f 1e 90 3d 03 88 1b bd 06 ed 86 3d
       -0.07348137 0.07036983 -0.037971508 0.065881774
000190 9d ee 09 bd af dd e2 3c fe d3 9b bd f5 08 92 3d
       -0.033674825 0.027693598 -0.07608794 0.07130615
0001a0 9a 5b ae bc 24 e6 95 3c b7 25 8e 3d 6d 70 28 3d
       -0.021283913 0.018298216 0.06940787 0.041122843
0001b0 7f c1 67 bd aa 3f 9a bd 46 9f a1 bd 99 f5 8b bb
       -0.056581017 -0.07531674 -0.07891707 -0.004271221
0001c0 27 ca 07 bd 9f e6 94 3c c1 e9 00 3d 94 98 62 3d
       -0.033151772 0.018176375 0.031472925 0.05532129
0001d0 50 76 12 3d f3 dd a7 bc ec 25 f6 3c 91 f6 ae 3d
       0.035757363 -0.020491576 0.03004738 0.085431226
0001e0 02 bc 0d 3c 81 6e f3 bc 6b fc 94 3c 38 9f 80 3d
       0.008650782 -0.029715778 0.018186769 0.062803686
0001f0 9c f2 01 bd f4 49 ac bd c4 03 8d bc 86 06 9c 3d
       -0.03172551 -0.08412543 -0.01721371 0.07618432
000200 d1 82 ba bd 3a 52 86 3d 2f 3f d0 bb 7b e4 13 3d
       -0.091069825 0.06558652 -0.0063551883 0.036106568
000210 3f c5 31 3d 6e 80 68 bd 11 57 84 bc 9b d9 8c 3d
       0.043401 -0.056763105 -0.016154798 0.068774424
000220 49 c6 77 3d aa 62 9b bd bf 85 33 bd 19 76 07 bd
       0.060491834 -0.07587178 -0.043828722 -0.03307161
000230 07 0e 0a 3c 21 6e b0 bd 3a 89 6f 3c bc 9b 79 bc
       0.008426196 -0.086147554 0.01462012 -0.015234884
000240 f5 c4 14 3d cc 3d 80 3d 04 92 b7 bc af 86 57 bd
       0.036320645 0.06261787 -0.022408493 -0.05261868
000250 a4 d2 10 3d 81 d9 55 bd 0a 1c ce 3c 8b 48 88 bd
       0.035357133 -0.05220938 0.025159854 -0.066544615
000260 b8 c1 a6 3c 49 60 00 bd 53 d5 24 3d bb e5 1a 3d
       0.020356044 -0.031341825 0.040242504 0.037816744
000270 e4 ca 1c bd aa 52 ab 3d 82 6f 8c 3c 8d 7b ec 3c
       -0.03827943 0.08365376 0.017143015 0.028867507
000280 13 72 a4 3d db 83 8a 3d 92 ae 84 3d 0c f0 b8 3d
       0.080295704 0.06763431 0.06478609 0.0903016
000290 77 56 a1 bc 04 3e b6 bc 4a 8b 9b bd 43 55 10 bd
       -0.01969455 -0.022246368 -0.07594927 -0.035237562
0002a0 84 a3 3d bd c0 9e 0f bd f5 3f 73 3d f9 cd e8 3c
       -0.04629852 -0.035063505 0.059387166 0.028418528
0002b0 6d 41 55 3d 54 c4 47 bd 44 c1 9d bd f4 e5 72 3d
       0.052064348 -0.048771217 -0.07702878 0.05930133
0002c0 31 03 dd 3c d4 7e bf 3c c4 04 8c bd 8d 62 0a 3d
       0.02697906 0.023375906 -0.068368465 0.03378539
0002d0 52 0a 43 bc 36 ca 5e 3d 59 db b1 3d 25 f6 42 bd
       -0.011904316 0.054392062 0.08684415 -0.047598023
0002e0 f4 cd 3b 3d 72 da 74 3d 4a 7c 93 bc 2f 58 f7 bc
       0.04585071 0.05977864 -0.018003602 -0.030193416
0002f0 8d 87 8e bd b4 72 21 bd 30 28 b0 bd a0 8c ad 3d
       -0.06959448 -0.03941603 -0.08601415 0.08474088
000300 bc 87 3b bd 5f bb 28 bd a0 11 49 be 27 70 4c bd
       -0.045783743 -0.041194316 -0.1963563 -0.049911644
000310 b2 3d 60 3d c9 4b 80 3d 5e 5e c8 3d b6 5a af bd
       0.054746337 0.06264455 0.09783624 -0.085622236

batchnorm.weight f4 [200]
000000 22 de 84 3f 6d 76 7e 3f 46 83 8f 3f 38 8c 8a 3f
       1.038029 0.99399453 1.1211936 1.0824041
000010 c8 7f 8a 3f 8a fc 82 3f 00 00 80 3f 89 4a 85 3f
       1.0820246 1.0233319 1.0 1.0413371
000020 00 00 80 3f a6 4d 88 3f f8 2b 87 3f 1e d0 85 3f
       1.0 1.0648696 1.0560293 1.0454137
000030 37 39 88 3f 84 68 86 3f a2 b4 84 3f c5 c4 80 3f
       1.064246 1.0500646 1.0367625 1.0060049
000040 69 b7 8d 3f 47 6c 7e 3f 21 c0 89 3f cd 69 81 3f
       1.1071597 0.9938397 1.0761758 1.0110413
000050 5f 50 87 3f b2 41 81 3f 00 00 80 3f a1 92 7d 3f
       1.0571402 1.0098174 1.0 0.9905186
000060 ee 93 88 3f 00 00 80 3f b0 57 84 3f d5 cc 87 3f
       1.0670145 1.0 1.033926 1.0609385
000070 6d 76 7e 3f f2 2d 86 3f 81 50 8a 3f 09 31 89 3f
       0.99399453 1.0482771 1.0805818 1.0718089
000080 fa 90 89 3f 1f 6c 91 3f 2c fd 92 3f 1c bb 87 3f
       1.0747368 1.1361121 1.1483512 1.0603976
000090 32 56 87 3f 57 fb 90 3f 74 16 86 3f 76 72 85 3f
       1.057318 1.1326703 1.0475602 1.0425556
0000a0 2a df 86 3f 00 00 80 3f 3e 81 87 3f 02 63 86 3f
       1.0536854 1.0 1.0586317 1.0498965
0000b0 00 00 80 3f bd b0 7e 3f 3b 15 88 3f af a0 87 3f
       1.0 0.9948843 1.0631479 1.0595912
0000c0 54 c5 86 3f 1e 0e 86 3f 67 8b 89 3f ac e8 8f 3f
       1.052897 1.0473058 1.0745667 1.1242881
0000d0 07 ad 89 3f 80 53 84 3f 00 00 80 3f f5 b2 87 3f
       1.0755929 1.0337982 1.0 1.0601488
0000e0 2b a8 96 3f c3 1c 87 3f 57 9e 8c 3f 86 c3 8c 3f
       1.1770071 1.0555652 1.0985821 1.0997169
0000f0 58 e4 88 3f 82 ac 80 3f 56 1b 86 3f 7e a6 aa 3f
       1.0694685 1.0052645 1.0477092 1.3332059
000100 00 00 80 3f 00 00 80 3f 0e 3c 86 3f 0b 0a 8a 3f
       1.0 1.0 1.0487077 1.0784315
000110 f0 55 88 3f eb bf 85 3f cc d9 87 3f a7 77 80 3f
       1.0651226 1.0449194 1.0613341 1.0036515
000120 09 4a 88 3f 18 66 87 3f 4a 63 86 3f 55 b3 83 3f
       1.0647594 1.0578032 1.0499051 1.0289103
000130 d8 fe 80 3f dc f0 88 3f c1 f7 96 3f 9b a3 86 3f
       1.0077772 1.0698504 1.1794358 1.0518678
000140 0b a2 7e 3f 00 00 80 3f b9 8f 87 3f 00 00 80 3f
       0.9946601 1.0 1.0590736 1.0
000150 00 00 80 3f 5d fc 80 3f 32 f0 7d 3f 00 00 80 3f
       1.0 1.0077015 0.99194634 1.0
000160 e8 16 87 3f 1c c9 80 3f c9 5f 81 3f 5e fe 88 3f
       1.0553865 1.0061374 1.0107356 1.0702627
000170 6f 76 7e 3f f8 fd 88 3f 07 a0 87 3f d8 8b 8d 3f
       0.99399465 1.0702505 1.0595711 1.1058302
000180 2d b0 86 3f 00 00 80 3f 95 3d 8b 3f 00 00 80 3f
       1.0522515 1.0 1.0878168 1.0
000190 a8 d0 8d 3f 00 00 80 3f 00 00 80 3f 90 f4 86 3f
       1.1079302 1.0 1.0 1.0543385
0001a0 39 f3 86 3f 08 91 8d 3f 00 00 80 3f 8e c1 8b 3f
       1.0542976 1.1059885 1.0 1.0918443
0001b0 00 00 80 3f db d9 8a 3f 7b f3 83 3f 9c 62 85 3f
       1.0 1.0847734 1.0308679 1.0420718
0001c0 82 8d 89 3f ee bc 81 3f 00 00 80 3f be 40 89 3f
       1.074631 1.0135782 1.0 1.0722883
0001d0 72 76 7e 3f 00 00 80 3f b6 76 87 3f 0c 07 84 3f
       0.99399483 1.0 1.0583103 1.031465
0001e0 47 51 95 3f 1f 85 83 3f 22 ba 87 3f 62 64 88 3f
       1.1665429 1.0275 1.0603678 1.0655634
0001f0 62 d2 8a 3f 1c da 85 3f a9 0d 80 3f 29 54 86 3f
       1.0845454 1.0457187 1.0004169 1.0494434
000200 6d 76 7e 3f 6f dd 86 3f be d7 85 3f 6f 4a 8c 3f
       0.99399453 1.0536326 1.0456464 1.0960215
000210 bb 36 91 3f 86 fe 86 3f 1b 93 84 3f 79 99 85 3f
       1.1344827 1.0546424 1.0357393 1.0437461
000220 00 00 80 3f 54 8f 85 3f ef a3 84 3f f6 3e 86 3f
       1.0 1.0434365 1.0362529 1.0487964
000230 ce bf 84 3f 2e 4c 86 3f 00 00 80 3f 49 18 85 3f
       1.0371034 1.0491998 1.0 1.0398036
000240 cb 99 85 3f 68 4f 7e 3f eb 25 82 3f 0c 36 86 3f
       1.0437559 0.99339914 1.0167822 1.0485244
000250 f1 c3 86 3f c1 5d 88 3f 4f 9c 7f 3f 36 9d 87 3f
       1.0528547 1.0653611 0.99847883 1.0594852
000260 40 4e 83 3f de 5f 8a 3f 00 00 80 3f 00 00 80 3f
       1.0258255 1.0810506 1.0 1.0
000270 2b 61 7d 3f 50 03 83 3f 6a 57 85 3f 60 c9 8b 3f
       0.9897639 1.0235386 1.0417302 1.092083
000280 33 0c 82 3f e9 14 82 3f 32 e4 7f 3f 32 14 8a 3f
       1.0159973 1.0162631 0.99957573 1.0787413
000290 26 81 88 3f d3 8a 7e 3f ef 5d 86 3f 04 7e 83 3f
       1.0664413 0.9943058 1.0497416 1.0272832
0002a0 d9 8c 9a 3f 0d 82 88 3f af f3 88 3f 20 cb 89 3f
       1.2074233 1.0664688 1.0699366 1.0765114
0002b0 00 00 80 3f 8a d2 88 3f bb 8f 8a 3f 09 39 87 3f
       1.0 1.0689251 1.0825113 1.0564281
0002c0 00 00 80 3f 46 53 7e 3f 01 57 8a 3f c8 44 7e 3f
       1.0 0.99345815 1.0807801 0.993237
0002d0 32 3f 84 3f 75 79 87 3f 17 e5 86 3f 14 45 80 3f
       1.0331786 1.0583941 1.0538663 1.0021081
0002e0 7c 16 7f 3f 1a d8 81 3f e4 71 84 3f 26 cc 86 3f
       0.99643683 1.0144074 1.0347257 1.0531051
0002f0 00 00 80 3f 9b 9c 88 3f 00 00 80 3f d7 6b 87 3f
       1.0 1.0672792 1.0 1.0579785
000300 b7 c4 80 3f 60 1b 84 3f b2 be 81 3f 00 00 80 3f
       1.0060033 1.0320854 1.013632 1.0
000310 1b e8 88 3f c8 e4 84 3f 3d e3 86 3f 59 c5 85 3f
       1.0695833 1.0382318 1.0538098 1.0450851

batchnorm.bias f4 [200]
000000 50 ad 0c 3d 0d 75 02 bd 8e 4a 39 bc b9 f3 18 bd
       0.03434497 -0.03184991 -0.011309279 -0.037341807
000010 ff e1 81 3d ac 3b 16 bd 34 2d 30 3d 21 aa 0e bd
       0.063419335 -0.036678 0.04301186 -0.034830216
000020 d4 da 71 3d 1c 48 14 3d 3e d9 0b bd 60 b0 1e 3d
       0.05904658 0.03620158 -0.034142725 0.038742423
000030 bd 60 55 bd 12 3c 24 3d 85 d6 0b bd 20 13 0e bd
       -0.05209421 0.04009635 -0.03414013 -0.034686208
000040 f5 8b 32 3c 3a a0 f1 bc 7f af 12 bd db fb 6f ba
       0.010897626 -0.029495347 -0.035811897 -0.0009154656
000050 96 78 3e 3d f1 2c 51 3c 1c b4 2b 3d 31 8b f1 bc
       0.04650172 0.0127670625 0.041919813 -0.029485317
000060 2e 80 5e bb d3 14 a2 3d 49 e4 09 bd 63 cf 4b 3d
       -0.0033950913 0.07914128 -0.033664975 0.049758326
000070 7f 71 03 bd 20 8a 2c 3d fe 69 06 3d fd f2 d5 bc
       -0.03209066 0.042123914 0.032815926 -0.026116842
000080 ee 56 4f bc 4a 3c 0d bc 05 06 88 bc 62 7a c8 bc
       -0.012655003 -0.008620331 -0.016604433 -0.02447242
000090 bc a4 16 3d 65 5b 3b 3c 8d 8d 44 3c 26 f0 fe 3b
       0.036778197 0.011435364 0.011996639 0.007780093
0000a0 68 c5 05 3d 18 12 5a 3d 04 0e 6b 3d 81 5d 19 3d
       0.032658964 0.05323991 0.057386413 0.037442688
0000b0 b1 c9 38 bd 50 01 0a bd d4 7f a4 bc e7 a7 1a bd
       -0.045114223 -0.033692658 -0.020080484 -0.03775778
0000c0 b3 a0 d2 3c bb 5e d4 3a c2 b1 3f bd 9d be b2 bc
       0.025711393 0.0016202548 -0.046800382 -0.021819407
0000d0 06 6e f3 3c 81 9a 14 3d 60 13 92 bd 80 cc 05 bd
       0.02971555 0.03628016 -0.07132602 -0.03266573
0000e0 1c e0 d6 bd 94 63 e2 3c fc fc 45 bd e9 28 28 3d
       -0.10491964 0.027635373 -0.048336968 0.04105464
0000f0 8a ab 00 3d 45 69 10 3d f7 b6 2d 3d 22 5a 77 3d
       0.031413592 0.035256643 0.042410817 0.06038869
000100 da 34 47 bd 35 64 67 3d f2 b0 4e 3b ce 6e 18 bd
       -0.048634388 0.05649205 0.0031538573 -0.037215047
000110 a7 2a 06 bd af 71 19 bd 22 ee 88 bc bd 2e 08 3d
       -0.03275552 -0.037461933 -0.016715113 0.033247698
000120 2f 60 1d bd 91 6c 92 3c 16 62 11 bd 8e 2f 0b 3d
       -0.038421806 0.017874034 -0.035493933 0.0339809
000130 af 6a 03 bd 62 b9 2f bc 91 17 da bc e3 13 38 bd
       -0.032084163 -0.010725351 -0.026622565 -0.04494084
000140 1e 61 e1 3c a2 ff 37 bd 58 22 20 3d 51 76 73 bd
       0.02751213 -0.044921525 0.039095253 -0.059439007
000150 ec 53 29 bd 60 3c a7 bc 58 21 00 3d 30 86 66 3d
       -0.0413398 -0.020414531 0.0312818 0.056280315
000160 b6 68 18 bd bb 11 f4 3c 5d 13 dc bc ce 08 26 bd
       -0.037209235 0.02979361 -0.026864702 -0.04053574
000170 3e 44 bb 3c a2 a1 36 3c 67 85 32 bd 10 7a 09 bd
       0.022859689 0.011146935 -0.043584254 -0.033563673
000180 fd 7a 0e 3d 7f da 2e bd 04 cb 30 bd a3 2e 68 3d
       0.03478526 -0.042688843 -0.04316236 0.0566851
000190 51 48 32 3d 5d 85 3e bc 81 5c 60 3d de 1a 17 bd
       0.043525998 -0.011628476 0.05477572 -0.036890857
0001a0 8d 54 19 3d a9 51 9e bd 4f ab 30 3e d7 2a ba 3c
       0.03743415 -0.07730419 0.17252849 0.022725506
0001b0 97 98 81 3d f0 d5 15 3d db 26 ea 3c be 6c 1d bd
       0.06327932 0.03658098 0.02858298 -0.038433783
0001c0 bd 63 91 3d b3 0b 0c bd 8b b4 19 be ae f2 29 3d
       0.07099102 -0.034190845 -0.15010278 0.041491203
0001d0 24 80 08 3d b7 78 42 bd b0 66 21 bd 56 13 87 3c
       0.03332533 -0.047478404 -0.03940457 0.016488712
0001e0 2b 7c 07 bd d3 9c e9 3c b2 6d 21 bd ac af 1e 3d
       -0.0330774 0.028517162 -0.039411254 0.038741753
0001f0 a0 60 fe 3c 8d 3e 1a bd 81 34 18 bd e5 b5 a3 3c
       0.031051934 -0.03765731 -0.037159447 0.019984195
000200 0e ae f7 3c b8 68 0d bd e5 48 11 bd 34 de 30 3d
       0.030234363 -0.034523696 -0.03546991 0.04318066
000210 f9 8e aa 3d bf 8f 0f bd 0c eb 1d bd 20 09 30 3c
       0.08328051 -0.035049196 -0.038554236 0.010744363
000220 03 99 85 3d 85 30 18 3d fb 1d 15 3d cc 9e 09 3d
       0.06523325 0.037155647 0.036405545 0.033598706
000230 09 21 0b 3d 1c ad d5 bb ed 54 32 3d c4 e6 7c bc
       0.03396705 -0.0065208804 0.043538023 -0.015435878
000240 28 18 1e 3d 5b b9 ef bc 25 46 05 3d 54 11 41 3d
       0.038597256 -0.029263189 0.0325376 0.047135666
000250 8b 9e 1b bd 8a 3e 54 bd 1b e7 d1 bc 46 c1 4d 3c
       -0.037992995 -0.051817454 -0.025622895 0.012558287
000260 59 e4 0b 3d 3d 42 fc 3c 2a 55 40 bd cb ad 92 3d
       0.034153316 0.030793304 -0.04695622 0.07162055
000270 21 4d e0 bc 69 f4 9f bc 7f da 1b 3d e5 eb 21 3d
       -0.027380528 -0.019525724 0.03805017 0.039531607
000280 11 84 02 bd 08 37 01 bd 5a 50 fb 3c cd 17 20 bd
       -0.03186423 -0.031546623 0.030677963 -0.0390852
000290 f2 ca 05 3d 61 75 3a 3d d9 cf 22 bd fc c7 0f bd
       0.032664247 0.045522097 -0.039749 -0.03510283
0002a0 3f 21 62 bd 59 1e 11 bd 27 72 1b 3d 1b df 4a 3d
       -0.055207487 -0.035429332 0.03795066 0.049529176
0002b0 7b ee ca 3d 7e 27 22 3d c8 b9 33 bd 59 08 29 3d
       0.09908768 0.039588444 -0.043878347 0.041267727
0002c0 f7 7a 6c bd a1 4b f5 bc f1 25 88 bd e8 87 05 3d
       -0.057734456 -0.02994329 -0.06647862 0.032600313
0002d0 7b a5 00 3d b0 fe 19 3d 95 de 75 bc 9c 4c 0e bd
       0.031407814 0.037596405 -0.015006681 -0.03474103
0002e0 a0 ab ff bc 02 6a 0a 3d 87 e7 12 3d 60 10 0c 3d
       -0.031209767 0.033792503 0.035865333 0.034195304
0002f0 f0 0a 5e 3d 56 38 12 bd 88 26 f1 3c ef 34 26 3b
       0.05420965 -0.035698257 0.029437318 0.002536114
000300 58 29 0e bd c5 8f 1b 3d 89 41 0a 3d 03 e1 89 bd
       -0.034707397 0.037978906 0.033753905 -0.06732371
000310 e5 3d 0e bd 80 0f f8 3c b8 1f 18 3d eb 5a 1c bd
       -0.034726996 0.030280828 0.037139624 -0.038172644

batchnorm.running_mean f4 [200]
000000 d1 a2 81 3e 04 00 00 00 a6 da ce 3e 3e dd 19 3f
       0.25319532 6e-45 0.4040119 0.60103214
000010 79 dc 92 3d 3e 91 d2 3e 00 00 00 00 6c aa 43 3c
       0.07170958 0.41126436 0.0 0.011942487
000020 00 00 00 00 f0 e8 e3 3c 2c bc 1b 3f b1 6a 18 3e
       0.0 0.027821034 0.60834 0.1488445
000030 7e 4b 31 3d e4 61 bb 3d 65 98 eb 3e 04 00 00 00
       0.043284886 0.091495305 0.46014705 6e-45
000040 dd 3b 13 3e 04 00 00 00 1d cc 01 3d dc 3a 27 3e
       0.14378305 6e-45 0.0316888 0.16331047
000050 82 a9 4c 3d da 3d 9d 3e 00 00 00 00 04 00 00 00
       0.049966343 0.30711251 0.0 6e-45
000060 88 9d e6 3c 00 00 00 00 30 2e 30 3d d9 c7 29 3e
       0.028151289 0.0 0.043012798 0.16580142
000070 04 00 00 00 56 96 a6 3c 7c df b8 3e 67 b4 00 3e
       6e-45 0.020335358 0.36108005 0.12568818
000080 26 cc 07 3e 02 0c be 3e 02 ea fc 3d 57 1f 1d 3f
       0.1326147 0.37118536 0.12349321 0.61375946
000090 ab c5 17 3e aa 31 20 3e 72 b7 5b 3c 83 28 44 3d
       0.14821498 0.15643945 0.013410436 0.047890197
0000a0 e0 cc 50 3d 00 00 00 00 43 94 cc 3d 0e 14 ae 3d
       0.050976634 0.0 0.09989216 0.08499919
0000b0 00 00 00 00 04 00 00 00 1a f2 43 3e 55 ab 94 3d
       0.0 6e-45 0.19135323 0.072592415
0000c0 f7 5e bf 3b dd 74 80 3e 2a ee 3c 3d 8e 11 94 3d
       0.005840178 0.2508916 0.04612557 0.07229911
0000d0 d3 e4 07 3e b8 03 b1 3d 00 00 00 00 cf 64 bb 3e
       0.13270883 0.086432874 0.0 0.36600348
0000e0 d5 75 fc 3e 72 51 41 3d 50 1f f3 3e 5f ec c1 3d
       0.4930865 0.047196813 0.47484827 0.09468912
0000f0 dd b4 da 3c 52 65 c2 3d 26 b0 c5 3c b4 5a 21 3e
       0.02669757 0.094919816 0.024131846 0.15757257
000100 00 00 00 00 00 00 00 00 10 dc 3b 3e c8 de 0b 3f
       0.0 0.0 0.18345666 0.5463681
000110 8e f0 1f 3c 69 c6 dc 3e 1e 7a 9b 3e b3 eb 07 3d
       0.009761943 0.43120125 0.30366606 0.033183765
000120 7a 83 bc 3e 5f e2 ef 3e 2f bf 3b 3e f6 a1 c2 3c
       0.3681906 0.46852395 0.1833465 0.02375887
000130 87 fd 09 3b cb da a7 3c ff 98 f3 3d ac 3b 12 3d
       0.0021055655 0.02049007 0.11894416 0.03570144
000140 60 1c 10 3e 00 00 00 00 29 9d 2d 3e 00 00 00 00
       0.14073324 0.0 0.16954483 0.0
000150 00 00 00 00 04 00 00 00 04 00 00 00 00 00 00 00
       0.0 6e-45 6e-45 0.0
000160 34 04 d0 3d bf f1 16 3d bd d5 a0 3d 8e d9 32 3e
       0.10157052 0.03685164 0.07853267 0.17465803
000170 04 00 00 00 1a fe bb 3c a0 da e6 3e a7 d3 1b 3f
       6e-45 0.022948314 0.45088673 0.6086983
000180 98 34 f3 3c 00 00 00 00 72 e7 c4 3e 00 00 00 00
       0.029688165 0.0 0.3845783 0.0
000190 2d 07 a0 3e 00 00 00 00 00 00 00 00 5c d0 2a 3d
       0.31255475 0.0 0.0 0.041702613
0001a0 e3 27 0c 3e 25 03 10 3f 00 00 00 00 70 c8 e4 3e
       0.1368709 0.562548 0.0 0.44684172
0001b0 00 00 00 00 af 18 2f 3e 01 c3 99 3c 1e 2a 2b 3d
       0.0 0.1709926 0.018769743 0.041788213
0001c0 cb 2c b9 3c 79 aa a6 3e 00 00 00 00 9f 64 61 3e
       0.022604367 0.32551935 0.0 0.2201104
0001d0 04 00 00 00 00 00 00 00 a5 ff 91 3e c1 dc e4 3d
       6e-45 0.0 0.28515354 0.11174918
0001e0 b4 12 99 3e 3f 99 91 3d e6 18 35 3f c5 bd 00 3d
       0.29897082 0.071093075 0.70741117 0.03143098
0001f0 d6 11 c6 3e 75 39 33 3d 04 00 00 00 e6 b0 1a 3d
       0.38685483 0.043755967 6e-45 0.03776636
000200 04 00 00 00 a0 86 9f 3d 72 1e 9e 3e 04 f1 09 3e
       6e-45 0.077893496 0.30882603 0.13470846
000210 d0 81 e7 3d 7c 4c 19 3b 99 5c 7f 3b 0d 62 82 3c
       0.11304057 0.0023391536 0.0038965105 0.015915895
000220 00 00 00 00 82 3a 56 3d c2 93 96 3c 3f cc 92 3d
       0.0 0.05230189 0.018381003 0.07167863
000230 57 86 24 3c 60 53 3d 3c 00 00 00 00 f6 46 4b 3e
       0.010041795 0.011555523 0.0 0.19851288
000240 9b c2 37 3e 04 00 00 00 9c 73 11 3d 51 99 87 3d
       0.1794533 6e-45 0.035510644 0.0662104
000250 72 45 07 3f f8 8a e5 3e 96 0d 97 3e 11 5d c0 3d
       0.5284034 0.44832587 0.29502553 0.09392751
000260 2f bb a8 3c d5 0b 5e 3d 00 00 00 00 00 00 00 00
       0.020597069 0.054210503 0.0 0.0
000270 04 00 00 00 24 66 1b 3c 2a e3 0c 3e ca 5d 25 3e
       6e-45 0.009484801 0.13758531 0.16149059
000280 34 f9 71 3e 12 fc 90 3c 04 00 00 00 33 8b cd 3e
       0.2363022 0.017698321 6e-45 0.40145263
000290 88 c1 99 3d 04 00 00 00 ad af e6 3e aa a4 91 3e
       0.07507616 6e-45 0.45055905 0.2844594
0002a0 09 90 c5 3e 86 90 dd 3d f5 eb 01 3e 60 b2 9c 3d
       0.38586453 0.10818581 0.12687667 0.0765121
0002b0 00 00 00 00 70 11 06 3e f4 61 c5 3e 14 10 52 3d
       0.0 0.1309259 0.38551295 0.051284865
0002c0 00 00 00 00 04 00 00 00 37 85 1d 3d 04 00 00 00
       0.0 6e-45 0.03845712 6e-45
0002d0 30 fc 54 3b 5e 16 bd 3e 98 e6 5b 3e 04 00 00 00
       0.0032498948 0.36931127 0.21474683 6e-45
0002e0 04 00 00 00 a8 e2 a1 3e a8 36 58 3b 58 27 0d 3d
       6e-45 0.31618237 0.0032991562 0.03446135
0002f0 00 00 00 00 ca 40 bd 3e 00 00 00 00 52 62 bc 3e
       0.0 0.36963493 0.0 0.36793762
000300 04 00 00 00 c5 a7 a6 3c 02 fa 95 3d 00 00 00 00
       6e-45 0.02034367 0.07323076 0.0
000310 2c c4 3c 3e 99 fe 51 3e b3 c8 90 3d 1c 70 5d 3e
       0.18434209 0.20507278 0.0706953 0.21624798
